…
[W 2025-02-02 22:10:19,154] Trial 0 failed with parameters: {'num_layers': 1, 'num_heads': 2, 'hidden_size': 2, 'intermediate_size': 2, 'bert.encoder.layer.0.attention.self.query_type': 'identity', 'bert.encoder.layer.0.attention.self.key_type': 'identity', 'bert.encoder.layer.0.attention.self.value_type': 'identity', 'bert.encoder.layer.0.attention.output.dense_type': 'identity', 'bert.encoder.layer.1.attention.self.query_type': 'linear', 'bert.encoder.layer.1.attention.self.key_type': 'linear', 'bert.encoder.layer.1.attention.self.value_type': 'identity', 'bert.encoder.layer.1.attention.output.dense_type': 'linear', 'bert.pooler.dense_type': 'identity'} because of the following error: The value BertForSequenceClassification(
  (bert): BertModel(
    (embeddings): BertEmbeddings(
      (word_embeddings): Embedding(30522, 256, padding_idx=0)
      (position_embeddings): Embedding(512, 256)
      (token_type_embeddings): Embedding(2, 256)
      (LayerNorm): LayerNorm((256,), eps=1e-12, elementwise_affine=True)
      (dropout): Dropout(p=0.1, inplace=False)
    )
    (encoder): BertEncoder(
      (layer): ModuleList(
        (0): BertLayer(
          (attention): BertAttention(
            (self): BertSdpaSelfAttention(
              (query): Identity()
              (key): Identity()
              (value): Identity()
              (dropout): Dropout(p=0.1, inplace=False)
            )
            (output): BertSelfOutput(
              (dense): Identity()
              (LayerNorm): LayerNorm((256,), eps=1e-12, elementwise_affine=True)
              (dropout): Dropout(p=0.1, inplace=False)
            )
          )
          (intermediate): BertIntermediate(
            (dense): Linear(in_features=256, out_features=1024, bias=True)
            (intermediate_act_fn): GELUActivation()
          )
          (output): BertOutput(
            (dense): Linear(in_features=1024, out_features=256, bias=True)
            (LayerNorm): LayerNorm((256,), eps=1e-12, elementwise_affine=True)
            (dropout): Dropout(p=0.1, inplace=False)
          )
        )
        (1): BertLayer(
          (attention): BertAttention(
            (self): BertSdpaSelfAttention(
              (query): Linear(in_features=256, out_features=256, bias=True)
              (key): Linear(in_features=256, out_features=256, bias=True)
              (value): Identity()
              (dropout): Dropout(p=0.1, inplace=False)
            )
            (output): BertSelfOutput(
              (dense): Linear(in_features=256, out_features=256, bias=True)
              (LayerNorm): LayerNorm((256,), eps=1e-12, elementwise_affine=True)
              (dropout): Dropout(p=0.1, inplace=False)
            )
          )
          (intermediate): BertIntermediate(
            (dense): Linear(in_features=256, out_features=1024, bias=True)
            (intermediate_act_fn): GELUActivation()
          )
          (output): BertOutput(
            (dense): Linear(in_features=1024, out_features=256, bias=True)
            (LayerNorm): LayerNorm((256,), eps=1e-12, elementwise_affine=True)
            (dropout): Dropout(p=0.1, inplace=False)
          )
        )
      )
    )
    (pooler): BertPooler(
      (dense): Identity()
      (activation): Tanh()
    )
  )
  (dropout): Dropout(p=0.1, inplace=False)
  (classifier): Linear(in_features=256, out_features=2, bias=True)
) could not be cast to float.
[W 2025-02-02 22:10:19,155] Trial 0 failed with value BertForSequenceClassification(
  (bert): BertModel(
    (embeddings): BertEmbeddings(
      (word_embeddings): Embedding(30522, 256, padding_idx=0)
      (position_embeddings): Embedding(512, 256)
      (token_type_embeddings): Embedding(2, 256)
      (LayerNorm): LayerNorm((256,), eps=1e-12, elementwise_affine=True)
      (dropout): Dropout(p=0.1, inplace=False)
    )
    (encoder): BertEncoder(
      (layer): ModuleList(
        (0): BertLayer(
          (attention): BertAttention(
            (self): BertSdpaSelfAttention(
              (query): Identity()
              (key): Identity()
              (value): Identity()
              (dropout): Dropout(p=0.1, inplace=False)
            )
            (output): BertSelfOutput(
              (dense): Identity()
              (LayerNorm): LayerNorm((256,), eps=1e-12, elementwise_affine=True)
              (dropout): Dropout(p=0.1, inplace=False)
            )
          )
          (intermediate): BertIntermediate(
            (dense): Linear(in_features=256, out_features=1024, bias=True)
            (intermediate_act_fn): GELUActivation()
          )
          (output): BertOutput(
            (dense): Linear(in_features=1024, out_features=256, bias=True)
            (LayerNorm): LayerNorm((256,), eps=1e-12, elementwise_affine=True)
            (dropout): Dropout(p=0.1, inplace=False)
          )
        )
        (1): BertLayer(
          (attention): BertAttention(
            (self): BertSdpaSelfAttention(
              (query): Linear(in_features=256, out_features=256, bias=True)
              (key): Linear(in_features=256, out_features=256, bias=True)
              (value): Identity()
              (dropout): Dropout(p=0.1, inplace=False)
            )
            (output): BertSelfOutput(
              (dense): Linear(in_features=256, out_features=256, bias=True)
              (LayerNorm): LayerNorm((256,), eps=1e-12, elementwise_affine=True)
              (dropout): Dropout(p=0.1, inplace=False)
            )
          )
          (intermediate): BertIntermediate(
            (dense): Linear(in_features=256, out_features=1024, bias=True)
            (intermediate_act_fn): GELUActivation()
          )
          (output): BertOutput(
            (dense): Linear(in_features=1024, out_features=256, bias=True)
            (LayerNorm): LayerNorm((256,), eps=1e-12, elementwise_affine=True)
            (dropout): Dropout(p=0.1, inplace=False)
          )
        )
      )
    )
    (pooler): BertPooler(
      (dense): Identity()
      (activation): Tanh()
    )
  )
  (dropout): Dropout(p=0.1, inplace=False)
  (classifier): Linear(in_features=256, out_features=2, bias=True)
).
[W 2025-02-02 22:10:19,345] Trial 1 failed with parameters: {'num_layers': 1, 'num_heads': 1, 'hidden_size': 2, 'intermediate_size': 0, 'bert.encoder.layer.0.attention.self.query_type': 'identity', 'bert.encoder.layer.0.attention.self.key_type': 'linear', 'bert.encoder.layer.0.attention.self.value_type': 'linear', 'bert.encoder.layer.0.attention.output.dense_type': 'linear', 'bert.encoder.layer.1.attention.self.query_type': 'linear', 'bert.encoder.layer.1.attention.self.key_type': 'linear', 'bert.encoder.layer.1.attention.self.value_type': 'identity', 'bert.encoder.layer.1.attention.output.dense_type': 'identity', 'bert.pooler.dense_type': 'identity'} because of the following error: The value BertForSequenceClassification(
  (bert): BertModel(
    (embeddings): BertEmbeddings(
      (word_embeddings): Embedding(30522, 256, padding_idx=0)
      (position_embeddings): Embedding(512, 256)
      (token_type_embeddings): Embedding(2, 256)
      (LayerNorm): LayerNorm((256,), eps=1e-12, elementwise_affine=True)
      (dropout): Dropout(p=0.1, inplace=False)
    )
    (encoder): BertEncoder(
      (layer): ModuleList(
        (0): BertLayer(
          (attention): BertAttention(
            (self): BertSdpaSelfAttention(
              (query): Identity()
              (key): Linear(in_features=256, out_features=256, bias=True)
              (value): Linear(in_features=256, out_features=256, bias=True)
              (dropout): Dropout(p=0.1, inplace=False)
            )
            (output): BertSelfOutput(
              (dense): Linear(in_features=256, out_features=256, bias=True)
              (LayerNorm): LayerNorm((256,), eps=1e-12, elementwise_affine=True)
              (dropout): Dropout(p=0.1, inplace=False)
            )
          )
          (intermediate): BertIntermediate(
            (dense): Linear(in_features=256, out_features=512, bias=True)
            (intermediate_act_fn): GELUActivation()
          )
          (output): BertOutput(
            (dense): Linear(in_features=512, out_features=256, bias=True)
            (LayerNorm): LayerNorm((256,), eps=1e-12, elementwise_affine=True)
            (dropout): Dropout(p=0.1, inplace=False)
          )
        )
        (1): BertLayer(
          (attention): BertAttention(
            (self): BertSdpaSelfAttention(
              (query): Linear(in_features=256, out_features=256, bias=True)
              (key): Linear(in_features=256, out_features=256, bias=True)
              (value): Identity()
              (dropout): Dropout(p=0.1, inplace=False)
            )
            (output): BertSelfOutput(
              (dense): Identity()
              (LayerNorm): LayerNorm((256,), eps=1e-12, elementwise_affine=True)
              (dropout): Dropout(p=0.1, inplace=False)
            )
          )
          (intermediate): BertIntermediate(
            (dense): Linear(in_features=256, out_features=512, bias=True)
            (intermediate_act_fn): GELUActivation()
          )
          (output): BertOutput(
            (dense): Linear(in_features=512, out_features=256, bias=True)
            (LayerNorm): LayerNorm((256,), eps=1e-12, elementwise_affine=True)
            (dropout): Dropout(p=0.1, inplace=False)
          )
        )
      )
    )
    (pooler): BertPooler(
      (dense): Identity()
      (activation): Tanh()
    )
  )
  (dropout): Dropout(p=0.1, inplace=False)
  (classifier): Linear(in_features=256, out_features=2, bias=True)
) could not be cast to float.
[W 2025-02-02 22:10:19,345] Trial 1 failed with value BertForSequenceClassification(
  (bert): BertModel(
    (embeddings): BertEmbeddings(
      (word_embeddings): Embedding(30522, 256, padding_idx=0)
      (position_embeddings): Embedding(512, 256)
      (token_type_embeddings): Embedding(2, 256)
      (LayerNorm): LayerNorm((256,), eps=1e-12, elementwise_affine=True)
      (dropout): Dropout(p=0.1, inplace=False)
    )
    (encoder): BertEncoder(
      (layer): ModuleList(
        (0): BertLayer(
          (attention): BertAttention(
            (self): BertSdpaSelfAttention(
              (query): Identity()
              (key): Linear(in_features=256, out_features=256, bias=True)
              (value): Linear(in_features=256, out_features=256, bias=True)
              (dropout): Dropout(p=0.1, inplace=False)
            )
            (output): BertSelfOutput(
              (dense): Linear(in_features=256, out_features=256, bias=True)
              (LayerNorm): LayerNorm((256,), eps=1e-12, elementwise_affine=True)
              (dropout): Dropout(p=0.1, inplace=False)
            )
          )
          (intermediate): BertIntermediate(
            (dense): Linear(in_features=256, out_features=512, bias=True)
            (intermediate_act_fn): GELUActivation()
          )
          (output): BertOutput(
            (dense): Linear(in_features=512, out_features=256, bias=True)
            (LayerNorm): LayerNorm((256,), eps=1e-12, elementwise_affine=True)
            (dropout): Dropout(p=0.1, inplace=False)
          )
        )
        (1): BertLayer(
          (attention): BertAttention(
            (self): BertSdpaSelfAttention(
              (query): Linear(in_features=256, out_features=256, bias=True)
              (key): Linear(in_features=256, out_features=256, bias=True)
              (value): Identity()
              (dropout): Dropout(p=0.1, inplace=False)
            )
            (output): BertSelfOutput(
              (dense): Identity()
              (LayerNorm): LayerNorm((256,), eps=1e-12, elementwise_affine=True)
              (dropout): Dropout(p=0.1, inplace=False)
            )
          )
          (intermediate): BertIntermediate(
            (dense): Linear(in_features=256, out_features=512, bias=True)
            (intermediate_act_fn): GELUActivation()
          )
          (output): BertOutput(
            (dense): Linear(in_features=512, out_features=256, bias=True)
            (LayerNorm): LayerNorm((256,), eps=1e-12, elementwise_affine=True)
            (dropout): Dropout(p=0.1, inplace=False)
          )
        )
      )
    )
    (pooler): BertPooler(
      (dense): Identity()
      (activation): Tanh()
    )
  )
  (dropout): Dropout(p=0.1, inplace=False)
  (classifier): Linear(in_features=256, out_features=2, bias=True)
).
[W 2025-02-02 22:10:19,520] Trial 2 failed with parameters: {'num_layers': 1, 'num_heads': 1, 'hidden_size': 1, 'intermediate_size': 3, 'bert.encoder.layer.0.attention.self.query_type': 'identity', 'bert.encoder.layer.0.attention.self.key_type': 'identity', 'bert.encoder.layer.0.attention.self.value_type': 'identity', 'bert.encoder.layer.0.attention.output.dense_type': 'identity', 'bert.encoder.layer.1.attention.self.query_type': 'linear', 'bert.encoder.layer.1.attention.self.key_type': 'linear', 'bert.encoder.layer.1.attention.self.value_type': 'identity', 'bert.encoder.layer.1.attention.output.dense_type': 'linear', 'bert.pooler.dense_type': 'linear'} because of the following error: The value BertForSequenceClassification(
  (bert): BertModel(
    (embeddings): BertEmbeddings(
      (word_embeddings): Embedding(30522, 192, padding_idx=0)
      (position_embeddings): Embedding(512, 192)
      (token_type_embeddings): Embedding(2, 192)
      (LayerNorm): LayerNorm((192,), eps=1e-12, elementwise_affine=True)
      (dropout): Dropout(p=0.1, inplace=False)
    )
    (encoder): BertEncoder(
      (layer): ModuleList(
        (0): BertLayer(
          (attention): BertAttention(
            (self): BertSdpaSelfAttention(
              (query): Identity()
              (key): Identity()
              (value): Identity()
              (dropout): Dropout(p=0.1, inplace=False)
            )
            (output): BertSelfOutput(
              (dense): Identity()
              (LayerNorm): LayerNorm((192,), eps=1e-12, elementwise_affine=True)
              (dropout): Dropout(p=0.1, inplace=False)
            )
          )
          (intermediate): BertIntermediate(
            (dense): Linear(in_features=192, out_features=1536, bias=True)
            (intermediate_act_fn): GELUActivation()
          )
          (output): BertOutput(
            (dense): Linear(in_features=1536, out_features=192, bias=True)
            (LayerNorm): LayerNorm((192,), eps=1e-12, elementwise_affine=True)
            (dropout): Dropout(p=0.1, inplace=False)
          )
        )
        (1): BertLayer(
          (attention): BertAttention(
            (self): BertSdpaSelfAttention(
              (query): Linear(in_features=192, out_features=192, bias=True)
              (key): Linear(in_features=192, out_features=192, bias=True)
              (value): Identity()
              (dropout): Dropout(p=0.1, inplace=False)
            )
            (output): BertSelfOutput(
              (dense): Linear(in_features=192, out_features=192, bias=True)
              (LayerNorm): LayerNorm((192,), eps=1e-12, elementwise_affine=True)
              (dropout): Dropout(p=0.1, inplace=False)
            )
          )
          (intermediate): BertIntermediate(
            (dense): Linear(in_features=192, out_features=1536, bias=True)
            (intermediate_act_fn): GELUActivation()
          )
          (output): BertOutput(
            (dense): Linear(in_features=1536, out_features=192, bias=True)
            (LayerNorm): LayerNorm((192,), eps=1e-12, elementwise_affine=True)
            (dropout): Dropout(p=0.1, inplace=False)
          )
        )
      )
    )
    (pooler): BertPooler(
      (dense): Linear(in_features=192, out_features=192, bias=True)
      (activation): Tanh()
    )
  )
  (dropout): Dropout(p=0.1, inplace=False)
  (classifier): Linear(in_features=192, out_features=2, bias=True)
) could not be cast to float.
[W 2025-02-02 22:10:19,520] Trial 2 failed with value BertForSequenceClassification(
  (bert): BertModel(
    (embeddings): BertEmbeddings(
      (word_embeddings): Embedding(30522, 192, padding_idx=0)
      (position_embeddings): Embedding(512, 192)
      (token_type_embeddings): Embedding(2, 192)
      (LayerNorm): LayerNorm((192,), eps=1e-12, elementwise_affine=True)
      (dropout): Dropout(p=0.1, inplace=False)
    )
    (encoder): BertEncoder(
      (layer): ModuleList(
        (0): BertLayer(
          (attention): BertAttention(
            (self): BertSdpaSelfAttention(
              (query): Identity()
              (key): Identity()
              (value): Identity()
              (dropout): Dropout(p=0.1, inplace=False)
            )
            (output): BertSelfOutput(
              (dense): Identity()
              (LayerNorm): LayerNorm((192,), eps=1e-12, elementwise_affine=True)
              (dropout): Dropout(p=0.1, inplace=False)
            )
          )
          (intermediate): BertIntermediate(
            (dense): Linear(in_features=192, out_features=1536, bias=True)
            (intermediate_act_fn): GELUActivation()
          )
          (output): BertOutput(
            (dense): Linear(in_features=1536, out_features=192, bias=True)
            (LayerNorm): LayerNorm((192,), eps=1e-12, elementwise_affine=True)
            (dropout): Dropout(p=0.1, inplace=False)
          )
        )
        (1): BertLayer(
          (attention): BertAttention(
            (self): BertSdpaSelfAttention(
              (query): Linear(in_features=192, out_features=192, bias=True)
              (key): Linear(in_features=192, out_features=192, bias=True)
              (value): Identity()
              (dropout): Dropout(p=0.1, inplace=False)
            )
            (output): BertSelfOutput(
              (dense): Linear(in_features=192, out_features=192, bias=True)
              (LayerNorm): LayerNorm((192,), eps=1e-12, elementwise_affine=True)
              (dropout): Dropout(p=0.1, inplace=False)
            )
          )
          (intermediate): BertIntermediate(
            (dense): Linear(in_features=192, out_features=1536, bias=True)
            (intermediate_act_fn): GELUActivation()
          )
          (output): BertOutput(
            (dense): Linear(in_features=1536, out_features=192, bias=True)
            (LayerNorm): LayerNorm((192,), eps=1e-12, elementwise_affine=True)
            (dropout): Dropout(p=0.1, inplace=False)
          )
        )
      )
    )
    (pooler): BertPooler(
      (dense): Linear(in_features=192, out_features=192, bias=True)
      (activation): Tanh()
    )
  )
  (dropout): Dropout(p=0.1, inplace=False)
  (classifier): Linear(in_features=192, out_features=2, bias=True)
).
[W 2025-02-02 22:10:19,710] Trial 3 failed with parameters: {'num_layers': 2, 'num_heads': 2, 'hidden_size': 2, 'intermediate_size': 2, 'bert.encoder.layer.0.attention.self.query_type': 'linear', 'bert.encoder.layer.0.attention.self.key_type': 'linear', 'bert.encoder.layer.0.attention.self.value_type': 'linear', 'bert.encoder.layer.0.attention.output.dense_type': 'identity', 'bert.encoder.layer.1.attention.self.query_type': 'linear', 'bert.encoder.layer.1.attention.self.key_type': 'identity', 'bert.encoder.layer.1.attention.self.value_type': 'linear', 'bert.encoder.layer.1.attention.output.dense_type': 'linear', 'bert.pooler.dense_type': 'identity'} because of the following error: The value BertForSequenceClassification(
  (bert): BertModel(
    (embeddings): BertEmbeddings(
      (word_embeddings): Embedding(30522, 256, padding_idx=0)
      (position_embeddings): Embedding(512, 256)
      (token_type_embeddings): Embedding(2, 256)
      (LayerNorm): LayerNorm((256,), eps=1e-12, elementwise_affine=True)
      (dropout): Dropout(p=0.1, inplace=False)
    )
    (encoder): BertEncoder(
      (layer): ModuleList(
        (0): BertLayer(
          (attention): BertAttention(
            (self): BertSdpaSelfAttention(
              (query): Linear(in_features=256, out_features=256, bias=True)
              (key): Linear(in_features=256, out_features=256, bias=True)
              (value): Linear(in_features=256, out_features=256, bias=True)
              (dropout): Dropout(p=0.1, inplace=False)
            )
            (output): BertSelfOutput(
              (dense): Identity()
              (LayerNorm): LayerNorm((256,), eps=1e-12, elementwise_affine=True)
              (dropout): Dropout(p=0.1, inplace=False)
            )
          )
          (intermediate): BertIntermediate(
            (dense): Linear(in_features=256, out_features=1024, bias=True)
            (intermediate_act_fn): GELUActivation()
          )
          (output): BertOutput(
            (dense): Linear(in_features=1024, out_features=256, bias=True)
            (LayerNorm): LayerNorm((256,), eps=1e-12, elementwise_affine=True)
            (dropout): Dropout(p=0.1, inplace=False)
          )
        )
        (1): BertLayer(
          (attention): BertAttention(
            (self): BertSdpaSelfAttention(
              (query): Linear(in_features=256, out_features=256, bias=True)
              (key): Identity()
              (value): Linear(in_features=256, out_features=256, bias=True)
              (dropout): Dropout(p=0.1, inplace=False)
            )
            (output): BertSelfOutput(
              (dense): Linear(in_features=256, out_features=256, bias=True)
              (LayerNorm): LayerNorm((256,), eps=1e-12, elementwise_affine=True)
              (dropout): Dropout(p=0.1, inplace=False)
            )
          )
          (intermediate): BertIntermediate(
            (dense): Linear(in_features=256, out_features=1024, bias=True)
            (intermediate_act_fn): GELUActivation()
          )
          (output): BertOutput(
            (dense): Linear(in_features=1024, out_features=256, bias=True)
            (LayerNorm): LayerNorm((256,), eps=1e-12, elementwise_affine=True)
            (dropout): Dropout(p=0.1, inplace=False)
          )
        )
      )
    )
    (pooler): BertPooler(
      (dense): Identity()
      (activation): Tanh()
    )
  )
  (dropout): Dropout(p=0.1, inplace=False)
  (classifier): Linear(in_features=256, out_features=2, bias=True)
) could not be cast to float.
[W 2025-02-02 22:10:19,711] Trial 3 failed with value BertForSequenceClassification(
  (bert): BertModel(
    (embeddings): BertEmbeddings(
      (word_embeddings): Embedding(30522, 256, padding_idx=0)
      (position_embeddings): Embedding(512, 256)
      (token_type_embeddings): Embedding(2, 256)
      (LayerNorm): LayerNorm((256,), eps=1e-12, elementwise_affine=True)
      (dropout): Dropout(p=0.1, inplace=False)
    )
    (encoder): BertEncoder(
      (layer): ModuleList(
        (0): BertLayer(
          (attention): BertAttention(
            (self): BertSdpaSelfAttention(
              (query): Linear(in_features=256, out_features=256, bias=True)
              (key): Linear(in_features=256, out_features=256, bias=True)
              (value): Linear(in_features=256, out_features=256, bias=True)
              (dropout): Dropout(p=0.1, inplace=False)
            )
            (output): BertSelfOutput(
              (dense): Identity()
              (LayerNorm): LayerNorm((256,), eps=1e-12, elementwise_affine=True)
              (dropout): Dropout(p=0.1, inplace=False)
            )
          )
          (intermediate): BertIntermediate(
            (dense): Linear(in_features=256, out_features=1024, bias=True)
            (intermediate_act_fn): GELUActivation()
          )
          (output): BertOutput(
            (dense): Linear(in_features=1024, out_features=256, bias=True)
            (LayerNorm): LayerNorm((256,), eps=1e-12, elementwise_affine=True)
            (dropout): Dropout(p=0.1, inplace=False)
          )
        )
        (1): BertLayer(
          (attention): BertAttention(
            (self): BertSdpaSelfAttention(
              (query): Linear(in_features=256, out_features=256, bias=True)
              (key): Identity()
              (value): Linear(in_features=256, out_features=256, bias=True)
              (dropout): Dropout(p=0.1, inplace=False)
            )
            (output): BertSelfOutput(
              (dense): Linear(in_features=256, out_features=256, bias=True)
              (LayerNorm): LayerNorm((256,), eps=1e-12, elementwise_affine=True)
              (dropout): Dropout(p=0.1, inplace=False)
            )
          )
          (intermediate): BertIntermediate(
            (dense): Linear(in_features=256, out_features=1024, bias=True)
            (intermediate_act_fn): GELUActivation()
          )
          (output): BertOutput(
            (dense): Linear(in_features=1024, out_features=256, bias=True)
            (LayerNorm): LayerNorm((256,), eps=1e-12, elementwise_affine=True)
            (dropout): Dropout(p=0.1, inplace=False)
          )
        )
      )
    )
    (pooler): BertPooler(
      (dense): Identity()
      (activation): Tanh()
    )
  )
  (dropout): Dropout(p=0.1, inplace=False)
  (classifier): Linear(in_features=256, out_features=2, bias=True)
).
[W 2025-02-02 22:10:20,027] Trial 4 failed with parameters: {'num_layers': 1, 'num_heads': 3, 'hidden_size': 4, 'intermediate_size': 3, 'bert.encoder.layer.0.attention.self.query_type': 'linear', 'bert.encoder.layer.0.attention.self.key_type': 'linear', 'bert.encoder.layer.0.attention.self.value_type': 'identity', 'bert.encoder.layer.0.attention.output.dense_type': 'linear', 'bert.encoder.layer.1.attention.self.query_type': 'linear', 'bert.encoder.layer.1.attention.self.key_type': 'linear', 'bert.encoder.layer.1.attention.self.value_type': 'identity', 'bert.encoder.layer.1.attention.output.dense_type': 'linear', 'bert.pooler.dense_type': 'identity'} because of the following error: The value BertForSequenceClassification(
  (bert): BertModel(
    (embeddings): BertEmbeddings(
      (word_embeddings): Embedding(30522, 512, padding_idx=0)
      (position_embeddings): Embedding(512, 512)
      (token_type_embeddings): Embedding(2, 512)
      (LayerNorm): LayerNorm((512,), eps=1e-12, elementwise_affine=True)
      (dropout): Dropout(p=0.1, inplace=False)
    )
    (encoder): BertEncoder(
      (layer): ModuleList(
        (0-1): 2 x BertLayer(
          (attention): BertAttention(
            (self): BertSdpaSelfAttention(
              (query): Linear(in_features=512, out_features=512, bias=True)
              (key): Linear(in_features=512, out_features=512, bias=True)
              (value): Identity()
              (dropout): Dropout(p=0.1, inplace=False)
            )
            (output): BertSelfOutput(
              (dense): Linear(in_features=512, out_features=512, bias=True)
              (LayerNorm): LayerNorm((512,), eps=1e-12, elementwise_affine=True)
              (dropout): Dropout(p=0.1, inplace=False)
            )
          )
          (intermediate): BertIntermediate(
            (dense): Linear(in_features=512, out_features=1536, bias=True)
            (intermediate_act_fn): GELUActivation()
          )
          (output): BertOutput(
            (dense): Linear(in_features=1536, out_features=512, bias=True)
            (LayerNorm): LayerNorm((512,), eps=1e-12, elementwise_affine=True)
            (dropout): Dropout(p=0.1, inplace=False)
          )
        )
      )
    )
    (pooler): BertPooler(
      (dense): Identity()
      (activation): Tanh()
    )
  )
  (dropout): Dropout(p=0.1, inplace=False)
  (classifier): Linear(in_features=512, out_features=2, bias=True)
) could not be cast to float.
[W 2025-02-02 22:10:20,027] Trial 4 failed with value BertForSequenceClassification(
  (bert): BertModel(
    (embeddings): BertEmbeddings(
      (word_embeddings): Embedding(30522, 512, padding_idx=0)
      (position_embeddings): Embedding(512, 512)
      (token_type_embeddings): Embedding(2, 512)
      (LayerNorm): LayerNorm((512,), eps=1e-12, elementwise_affine=True)
      (dropout): Dropout(p=0.1, inplace=False)
    )
    (encoder): BertEncoder(
      (layer): ModuleList(
        (0-1): 2 x BertLayer(
          (attention): BertAttention(
            (self): BertSdpaSelfAttention(
              (query): Linear(in_features=512, out_features=512, bias=True)
              (key): Linear(in_features=512, out_features=512, bias=True)
              (value): Identity()
              (dropout): Dropout(p=0.1, inplace=False)
            )
            (output): BertSelfOutput(
              (dense): Linear(in_features=512, out_features=512, bias=True)
              (LayerNorm): LayerNorm((512,), eps=1e-12, elementwise_affine=True)
              (dropout): Dropout(p=0.1, inplace=False)
            )
          )
          (intermediate): BertIntermediate(
            (dense): Linear(in_features=512, out_features=1536, bias=True)
            (intermediate_act_fn): GELUActivation()
          )
          (output): BertOutput(
            (dense): Linear(in_features=1536, out_features=512, bias=True)
            (LayerNorm): LayerNorm((512,), eps=1e-12, elementwise_affine=True)
            (dropout): Dropout(p=0.1, inplace=False)
          )
        )
      )
    )
    (pooler): BertPooler(
      (dense): Identity()
      (activation): Tanh()
    )
  )
  (dropout): Dropout(p=0.1, inplace=False)
  (classifier): Linear(in_features=512, out_features=2, bias=True)
).
[W 2025-02-02 22:10:20,193] Trial 5 failed with parameters: {'num_layers': 2, 'num_heads': 0, 'hidden_size': 1, 'intermediate_size': 0, 'bert.encoder.layer.0.attention.self.query_type': 'linear', 'bert.encoder.layer.0.attention.self.key_type': 'identity', 'bert.encoder.layer.0.attention.self.value_type': 'linear', 'bert.encoder.layer.0.attention.output.dense_type': 'linear', 'bert.encoder.layer.1.attention.self.query_type': 'linear', 'bert.encoder.layer.1.attention.self.key_type': 'identity', 'bert.encoder.layer.1.attention.self.value_type': 'identity', 'bert.encoder.layer.1.attention.output.dense_type': 'identity', 'bert.pooler.dense_type': 'linear'} because of the following error: The value BertForSequenceClassification(
  (bert): BertModel(
    (embeddings): BertEmbeddings(
      (word_embeddings): Embedding(30522, 192, padding_idx=0)
      (position_embeddings): Embedding(512, 192)
      (token_type_embeddings): Embedding(2, 192)
      (LayerNorm): LayerNorm((192,), eps=1e-12, elementwise_affine=True)
      (dropout): Dropout(p=0.1, inplace=False)
    )
    (encoder): BertEncoder(
      (layer): ModuleList(
        (0): BertLayer(
          (attention): BertAttention(
            (self): BertSdpaSelfAttention(
              (query): Linear(in_features=192, out_features=192, bias=True)
              (key): Identity()
              (value): Linear(in_features=192, out_features=192, bias=True)
              (dropout): Dropout(p=0.1, inplace=False)
            )
            (output): BertSelfOutput(
              (dense): Linear(in_features=192, out_features=192, bias=True)
              (LayerNorm): LayerNorm((192,), eps=1e-12, elementwise_affine=True)
              (dropout): Dropout(p=0.1, inplace=False)
            )
          )
          (intermediate): BertIntermediate(
            (dense): Linear(in_features=192, out_features=512, bias=True)
            (intermediate_act_fn): GELUActivation()
          )
          (output): BertOutput(
            (dense): Linear(in_features=512, out_features=192, bias=True)
            (LayerNorm): LayerNorm((192,), eps=1e-12, elementwise_affine=True)
            (dropout): Dropout(p=0.1, inplace=False)
          )
        )
        (1): BertLayer(
          (attention): BertAttention(
            (self): BertSdpaSelfAttention(
              (query): Linear(in_features=192, out_features=192, bias=True)
              (key): Identity()
              (value): Identity()
              (dropout): Dropout(p=0.1, inplace=False)
            )
            (output): BertSelfOutput(
              (dense): Identity()
              (LayerNorm): LayerNorm((192,), eps=1e-12, elementwise_affine=True)
              (dropout): Dropout(p=0.1, inplace=False)
            )
          )
          (intermediate): BertIntermediate(
            (dense): Linear(in_features=192, out_features=512, bias=True)
            (intermediate_act_fn): GELUActivation()
          )
          (output): BertOutput(
            (dense): Linear(in_features=512, out_features=192, bias=True)
            (LayerNorm): LayerNorm((192,), eps=1e-12, elementwise_affine=True)
            (dropout): Dropout(p=0.1, inplace=False)
          )
        )
      )
    )
    (pooler): BertPooler(
      (dense): Linear(in_features=192, out_features=192, bias=True)
      (activation): Tanh()
    )
  )
  (dropout): Dropout(p=0.1, inplace=False)
  (classifier): Linear(in_features=192, out_features=2, bias=True)
) could not be cast to float.
[W 2025-02-02 22:10:20,193] Trial 5 failed with value BertForSequenceClassification(
  (bert): BertModel(
    (embeddings): BertEmbeddings(
      (word_embeddings): Embedding(30522, 192, padding_idx=0)
      (position_embeddings): Embedding(512, 192)
      (token_type_embeddings): Embedding(2, 192)
      (LayerNorm): LayerNorm((192,), eps=1e-12, elementwise_affine=True)
      (dropout): Dropout(p=0.1, inplace=False)
    )
    (encoder): BertEncoder(
      (layer): ModuleList(
        (0): BertLayer(
          (attention): BertAttention(
            (self): BertSdpaSelfAttention(
              (query): Linear(in_features=192, out_features=192, bias=True)
              (key): Identity()
              (value): Linear(in_features=192, out_features=192, bias=True)
              (dropout): Dropout(p=0.1, inplace=False)
            )
            (output): BertSelfOutput(
              (dense): Linear(in_features=192, out_features=192, bias=True)
              (LayerNorm): LayerNorm((192,), eps=1e-12, elementwise_affine=True)
              (dropout): Dropout(p=0.1, inplace=False)
            )
          )
          (intermediate): BertIntermediate(
            (dense): Linear(in_features=192, out_features=512, bias=True)
            (intermediate_act_fn): GELUActivation()
          )
          (output): BertOutput(
            (dense): Linear(in_features=512, out_features=192, bias=True)
            (LayerNorm): LayerNorm((192,), eps=1e-12, elementwise_affine=True)
            (dropout): Dropout(p=0.1, inplace=False)
          )
        )
        (1): BertLayer(
          (attention): BertAttention(
            (self): BertSdpaSelfAttention(
              (query): Linear(in_features=192, out_features=192, bias=True)
              (key): Identity()
              (value): Identity()
              (dropout): Dropout(p=0.1, inplace=False)
            )
            (output): BertSelfOutput(
              (dense): Identity()
              (LayerNorm): LayerNorm((192,), eps=1e-12, elementwise_affine=True)
              (dropout): Dropout(p=0.1, inplace=False)
            )
          )
          (intermediate): BertIntermediate(
            (dense): Linear(in_features=192, out_features=512, bias=True)
            (intermediate_act_fn): GELUActivation()
          )
          (output): BertOutput(
            (dense): Linear(in_features=512, out_features=192, bias=True)
            (LayerNorm): LayerNorm((192,), eps=1e-12, elementwise_affine=True)
            (dropout): Dropout(p=0.1, inplace=False)
          )
        )
      )
    )
    (pooler): BertPooler(
      (dense): Linear(in_features=192, out_features=192, bias=True)
      (activation): Tanh()
    )
  )
  (dropout): Dropout(p=0.1, inplace=False)
  (classifier): Linear(in_features=192, out_features=2, bias=True)
).
[W 2025-02-02 22:10:20,354] Trial 6 failed with parameters: {'num_layers': 2, 'num_heads': 1, 'hidden_size': 1, 'intermediate_size': 0, 'bert.encoder.layer.0.attention.self.query_type': 'identity', 'bert.encoder.layer.0.attention.self.key_type': 'linear', 'bert.encoder.layer.0.attention.self.value_type': 'linear', 'bert.encoder.layer.0.attention.output.dense_type': 'identity', 'bert.encoder.layer.1.attention.self.query_type': 'linear', 'bert.encoder.layer.1.attention.self.key_type': 'identity', 'bert.encoder.layer.1.attention.self.value_type': 'identity', 'bert.encoder.layer.1.attention.output.dense_type': 'identity', 'bert.pooler.dense_type': 'identity'} because of the following error: The value BertForSequenceClassification(
  (bert): BertModel(
    (embeddings): BertEmbeddings(
      (word_embeddings): Embedding(30522, 192, padding_idx=0)
      (position_embeddings): Embedding(512, 192)
      (token_type_embeddings): Embedding(2, 192)
      (LayerNorm): LayerNorm((192,), eps=1e-12, elementwise_affine=True)
      (dropout): Dropout(p=0.1, inplace=False)
    )
    (encoder): BertEncoder(
      (layer): ModuleList(
        (0): BertLayer(
          (attention): BertAttention(
            (self): BertSdpaSelfAttention(
              (query): Identity()
              (key): Linear(in_features=192, out_features=192, bias=True)
              (value): Linear(in_features=192, out_features=192, bias=True)
              (dropout): Dropout(p=0.1, inplace=False)
            )
            (output): BertSelfOutput(
              (dense): Identity()
              (LayerNorm): LayerNorm((192,), eps=1e-12, elementwise_affine=True)
              (dropout): Dropout(p=0.1, inplace=False)
            )
          )
          (intermediate): BertIntermediate(
            (dense): Linear(in_features=192, out_features=512, bias=True)
            (intermediate_act_fn): GELUActivation()
          )
          (output): BertOutput(
            (dense): Linear(in_features=512, out_features=192, bias=True)
            (LayerNorm): LayerNorm((192,), eps=1e-12, elementwise_affine=True)
            (dropout): Dropout(p=0.1, inplace=False)
          )
        )
        (1): BertLayer(
          (attention): BertAttention(
            (self): BertSdpaSelfAttention(
              (query): Linear(in_features=192, out_features=192, bias=True)
              (key): Identity()
              (value): Identity()
              (dropout): Dropout(p=0.1, inplace=False)
            )
            (output): BertSelfOutput(
              (dense): Identity()
              (LayerNorm): LayerNorm((192,), eps=1e-12, elementwise_affine=True)
              (dropout): Dropout(p=0.1, inplace=False)
            )
          )
          (intermediate): BertIntermediate(
            (dense): Linear(in_features=192, out_features=512, bias=True)
            (intermediate_act_fn): GELUActivation()
          )
          (output): BertOutput(
            (dense): Linear(in_features=512, out_features=192, bias=True)
            (LayerNorm): LayerNorm((192,), eps=1e-12, elementwise_affine=True)
            (dropout): Dropout(p=0.1, inplace=False)
          )
        )
      )
    )
    (pooler): BertPooler(
      (dense): Identity()
      (activation): Tanh()
    )
  )
  (dropout): Dropout(p=0.1, inplace=False)
  (classifier): Linear(in_features=192, out_features=2, bias=True)
) could not be cast to float.
[W 2025-02-02 22:10:20,354] Trial 6 failed with value BertForSequenceClassification(
  (bert): BertModel(
    (embeddings): BertEmbeddings(
      (word_embeddings): Embedding(30522, 192, padding_idx=0)
      (position_embeddings): Embedding(512, 192)
      (token_type_embeddings): Embedding(2, 192)
      (LayerNorm): LayerNorm((192,), eps=1e-12, elementwise_affine=True)
      (dropout): Dropout(p=0.1, inplace=False)
    )
    (encoder): BertEncoder(
      (layer): ModuleList(
        (0): BertLayer(
          (attention): BertAttention(
            (self): BertSdpaSelfAttention(
              (query): Identity()
              (key): Linear(in_features=192, out_features=192, bias=True)
              (value): Linear(in_features=192, out_features=192, bias=True)
              (dropout): Dropout(p=0.1, inplace=False)
            )
            (output): BertSelfOutput(
              (dense): Identity()
              (LayerNorm): LayerNorm((192,), eps=1e-12, elementwise_affine=True)
              (dropout): Dropout(p=0.1, inplace=False)
            )
          )
          (intermediate): BertIntermediate(
            (dense): Linear(in_features=192, out_features=512, bias=True)
            (intermediate_act_fn): GELUActivation()
          )
          (output): BertOutput(
            (dense): Linear(in_features=512, out_features=192, bias=True)
            (LayerNorm): LayerNorm((192,), eps=1e-12, elementwise_affine=True)
            (dropout): Dropout(p=0.1, inplace=False)
          )
        )
        (1): BertLayer(
          (attention): BertAttention(
            (self): BertSdpaSelfAttention(
              (query): Linear(in_features=192, out_features=192, bias=True)
              (key): Identity()
              (value): Identity()
              (dropout): Dropout(p=0.1, inplace=False)
            )
            (output): BertSelfOutput(
              (dense): Identity()
              (LayerNorm): LayerNorm((192,), eps=1e-12, elementwise_affine=True)
              (dropout): Dropout(p=0.1, inplace=False)
            )
          )
          (intermediate): BertIntermediate(
            (dense): Linear(in_features=192, out_features=512, bias=True)
            (intermediate_act_fn): GELUActivation()
          )
          (output): BertOutput(
            (dense): Linear(in_features=512, out_features=192, bias=True)
            (LayerNorm): LayerNorm((192,), eps=1e-12, elementwise_affine=True)
            (dropout): Dropout(p=0.1, inplace=False)
          )
        )
      )
    )
    (pooler): BertPooler(
      (dense): Identity()
      (activation): Tanh()
    )
  )
  (dropout): Dropout(p=0.1, inplace=False)
  (classifier): Linear(in_features=192, out_features=2, bias=True)
).
[W 2025-02-02 22:10:20,657] Trial 7 failed with parameters: {'num_layers': 2, 'num_heads': 3, 'hidden_size': 4, 'intermediate_size': 2, 'bert.encoder.layer.0.attention.self.query_type': 'identity', 'bert.encoder.layer.0.attention.self.key_type': 'linear', 'bert.encoder.layer.0.attention.self.value_type': 'identity', 'bert.encoder.layer.0.attention.output.dense_type': 'linear', 'bert.encoder.layer.1.attention.self.query_type': 'identity', 'bert.encoder.layer.1.attention.self.key_type': 'linear', 'bert.encoder.layer.1.attention.self.value_type': 'linear', 'bert.encoder.layer.1.attention.output.dense_type': 'linear', 'bert.pooler.dense_type': 'linear'} because of the following error: The value BertForSequenceClassification(
  (bert): BertModel(
    (embeddings): BertEmbeddings(
      (word_embeddings): Embedding(30522, 512, padding_idx=0)
      (position_embeddings): Embedding(512, 512)
      (token_type_embeddings): Embedding(2, 512)
      (LayerNorm): LayerNorm((512,), eps=1e-12, elementwise_affine=True)
      (dropout): Dropout(p=0.1, inplace=False)
    )
    (encoder): BertEncoder(
      (layer): ModuleList(
        (0): BertLayer(
          (attention): BertAttention(
            (self): BertSdpaSelfAttention(
              (query): Identity()
              (key): Linear(in_features=512, out_features=512, bias=True)
              (value): Identity()
              (dropout): Dropout(p=0.1, inplace=False)
            )
            (output): BertSelfOutput(
              (dense): Linear(in_features=512, out_features=512, bias=True)
              (LayerNorm): LayerNorm((512,), eps=1e-12, elementwise_affine=True)
              (dropout): Dropout(p=0.1, inplace=False)
            )
          )
          (intermediate): BertIntermediate(
            (dense): Linear(in_features=512, out_features=1024, bias=True)
            (intermediate_act_fn): GELUActivation()
          )
          (output): BertOutput(
            (dense): Linear(in_features=1024, out_features=512, bias=True)
            (LayerNorm): LayerNorm((512,), eps=1e-12, elementwise_affine=True)
            (dropout): Dropout(p=0.1, inplace=False)
          )
        )
        (1): BertLayer(
          (attention): BertAttention(
            (self): BertSdpaSelfAttention(
              (query): Identity()
              (key): Linear(in_features=512, out_features=512, bias=True)
              (value): Linear(in_features=512, out_features=512, bias=True)
              (dropout): Dropout(p=0.1, inplace=False)
            )
            (output): BertSelfOutput(
              (dense): Linear(in_features=512, out_features=512, bias=True)
              (LayerNorm): LayerNorm((512,), eps=1e-12, elementwise_affine=True)
              (dropout): Dropout(p=0.1, inplace=False)
            )
          )
          (intermediate): BertIntermediate(
            (dense): Linear(in_features=512, out_features=1024, bias=True)
            (intermediate_act_fn): GELUActivation()
          )
          (output): BertOutput(
            (dense): Linear(in_features=1024, out_features=512, bias=True)
            (LayerNorm): LayerNorm((512,), eps=1e-12, elementwise_affine=True)
            (dropout): Dropout(p=0.1, inplace=False)
          )
        )
      )
    )
    (pooler): BertPooler(
      (dense): Linear(in_features=512, out_features=512, bias=True)
      (activation): Tanh()
    )
  )
  (dropout): Dropout(p=0.1, inplace=False)
  (classifier): Linear(in_features=512, out_features=2, bias=True)
) could not be cast to float.
[W 2025-02-02 22:10:20,658] Trial 7 failed with value BertForSequenceClassification(
  (bert): BertModel(
    (embeddings): BertEmbeddings(
      (word_embeddings): Embedding(30522, 512, padding_idx=0)
      (position_embeddings): Embedding(512, 512)
      (token_type_embeddings): Embedding(2, 512)
      (LayerNorm): LayerNorm((512,), eps=1e-12, elementwise_affine=True)
      (dropout): Dropout(p=0.1, inplace=False)
    )
    (encoder): BertEncoder(
      (layer): ModuleList(
        (0): BertLayer(
          (attention): BertAttention(
            (self): BertSdpaSelfAttention(
              (query): Identity()
              (key): Linear(in_features=512, out_features=512, bias=True)
              (value): Identity()
              (dropout): Dropout(p=0.1, inplace=False)
            )
            (output): BertSelfOutput(
              (dense): Linear(in_features=512, out_features=512, bias=True)
              (LayerNorm): LayerNorm((512,), eps=1e-12, elementwise_affine=True)
              (dropout): Dropout(p=0.1, inplace=False)
            )
          )
          (intermediate): BertIntermediate(
            (dense): Linear(in_features=512, out_features=1024, bias=True)
            (intermediate_act_fn): GELUActivation()
          )
          (output): BertOutput(
            (dense): Linear(in_features=1024, out_features=512, bias=True)
            (LayerNorm): LayerNorm((512,), eps=1e-12, elementwise_affine=True)
            (dropout): Dropout(p=0.1, inplace=False)
          )
        )
        (1): BertLayer(
          (attention): BertAttention(
            (self): BertSdpaSelfAttention(
              (query): Identity()
              (key): Linear(in_features=512, out_features=512, bias=True)
              (value): Linear(in_features=512, out_features=512, bias=True)
              (dropout): Dropout(p=0.1, inplace=False)
            )
            (output): BertSelfOutput(
              (dense): Linear(in_features=512, out_features=512, bias=True)
              (LayerNorm): LayerNorm((512,), eps=1e-12, elementwise_affine=True)
              (dropout): Dropout(p=0.1, inplace=False)
            )
          )
          (intermediate): BertIntermediate(
            (dense): Linear(in_features=512, out_features=1024, bias=True)
            (intermediate_act_fn): GELUActivation()
          )
          (output): BertOutput(
            (dense): Linear(in_features=1024, out_features=512, bias=True)
            (LayerNorm): LayerNorm((512,), eps=1e-12, elementwise_affine=True)
            (dropout): Dropout(p=0.1, inplace=False)
          )
        )
      )
    )
    (pooler): BertPooler(
      (dense): Linear(in_features=512, out_features=512, bias=True)
      (activation): Tanh()
    )
  )
  (dropout): Dropout(p=0.1, inplace=False)
  (classifier): Linear(in_features=512, out_features=2, bias=True)
).
[W 2025-02-02 22:10:20,979] Trial 8 failed with parameters: {'num_layers': 1, 'num_heads': 2, 'hidden_size': 4, 'intermediate_size': 4, 'bert.encoder.layer.0.attention.self.query_type': 'identity', 'bert.encoder.layer.0.attention.self.key_type': 'identity', 'bert.encoder.layer.0.attention.self.value_type': 'linear', 'bert.encoder.layer.0.attention.output.dense_type': 'linear', 'bert.encoder.layer.1.attention.self.query_type': 'identity', 'bert.encoder.layer.1.attention.self.key_type': 'linear', 'bert.encoder.layer.1.attention.self.value_type': 'linear', 'bert.encoder.layer.1.attention.output.dense_type': 'identity', 'bert.pooler.dense_type': 'linear'} because of the following error: The value BertForSequenceClassification(
  (bert): BertModel(
    (embeddings): BertEmbeddings(
      (word_embeddings): Embedding(30522, 512, padding_idx=0)
      (position_embeddings): Embedding(512, 512)
      (token_type_embeddings): Embedding(2, 512)
      (LayerNorm): LayerNorm((512,), eps=1e-12, elementwise_affine=True)
      (dropout): Dropout(p=0.1, inplace=False)
    )
    (encoder): BertEncoder(
      (layer): ModuleList(
        (0): BertLayer(
          (attention): BertAttention(
            (self): BertSdpaSelfAttention(
              (query): Identity()
              (key): Identity()
              (value): Linear(in_features=512, out_features=512, bias=True)
              (dropout): Dropout(p=0.1, inplace=False)
            )
            (output): BertSelfOutput(
              (dense): Linear(in_features=512, out_features=512, bias=True)
              (LayerNorm): LayerNorm((512,), eps=1e-12, elementwise_affine=True)
              (dropout): Dropout(p=0.1, inplace=False)
            )
          )
          (intermediate): BertIntermediate(
            (dense): Linear(in_features=512, out_features=2048, bias=True)
            (intermediate_act_fn): GELUActivation()
          )
          (output): BertOutput(
            (dense): Linear(in_features=2048, out_features=512, bias=True)
            (LayerNorm): LayerNorm((512,), eps=1e-12, elementwise_affine=True)
            (dropout): Dropout(p=0.1, inplace=False)
          )
        )
        (1): BertLayer(
          (attention): BertAttention(
            (self): BertSdpaSelfAttention(
              (query): Identity()
              (key): Linear(in_features=512, out_features=512, bias=True)
              (value): Linear(in_features=512, out_features=512, bias=True)
              (dropout): Dropout(p=0.1, inplace=False)
            )
            (output): BertSelfOutput(
              (dense): Identity()
              (LayerNorm): LayerNorm((512,), eps=1e-12, elementwise_affine=True)
              (dropout): Dropout(p=0.1, inplace=False)
            )
          )
          (intermediate): BertIntermediate(
            (dense): Linear(in_features=512, out_features=2048, bias=True)
            (intermediate_act_fn): GELUActivation()
          )
          (output): BertOutput(
            (dense): Linear(in_features=2048, out_features=512, bias=True)
            (LayerNorm): LayerNorm((512,), eps=1e-12, elementwise_affine=True)
            (dropout): Dropout(p=0.1, inplace=False)
          )
        )
      )
    )
    (pooler): BertPooler(
      (dense): Linear(in_features=512, out_features=512, bias=True)
      (activation): Tanh()
    )
  )
  (dropout): Dropout(p=0.1, inplace=False)
  (classifier): Linear(in_features=512, out_features=2, bias=True)
) could not be cast to float.
[W 2025-02-02 22:10:20,979] Trial 8 failed with value BertForSequenceClassification(
  (bert): BertModel(
    (embeddings): BertEmbeddings(
      (word_embeddings): Embedding(30522, 512, padding_idx=0)
      (position_embeddings): Embedding(512, 512)
      (token_type_embeddings): Embedding(2, 512)
      (LayerNorm): LayerNorm((512,), eps=1e-12, elementwise_affine=True)
      (dropout): Dropout(p=0.1, inplace=False)
    )
    (encoder): BertEncoder(
      (layer): ModuleList(
        (0): BertLayer(
          (attention): BertAttention(
            (self): BertSdpaSelfAttention(
              (query): Identity()
              (key): Identity()
              (value): Linear(in_features=512, out_features=512, bias=True)
              (dropout): Dropout(p=0.1, inplace=False)
            )
            (output): BertSelfOutput(
              (dense): Linear(in_features=512, out_features=512, bias=True)
              (LayerNorm): LayerNorm((512,), eps=1e-12, elementwise_affine=True)
              (dropout): Dropout(p=0.1, inplace=False)
            )
          )
          (intermediate): BertIntermediate(
            (dense): Linear(in_features=512, out_features=2048, bias=True)
            (intermediate_act_fn): GELUActivation()
          )
          (output): BertOutput(
            (dense): Linear(in_features=2048, out_features=512, bias=True)
            (LayerNorm): LayerNorm((512,), eps=1e-12, elementwise_affine=True)
            (dropout): Dropout(p=0.1, inplace=False)
          )
        )
        (1): BertLayer(
          (attention): BertAttention(
            (self): BertSdpaSelfAttention(
              (query): Identity()
              (key): Linear(in_features=512, out_features=512, bias=True)
              (value): Linear(in_features=512, out_features=512, bias=True)
              (dropout): Dropout(p=0.1, inplace=False)
            )
            (output): BertSelfOutput(
              (dense): Identity()
              (LayerNorm): LayerNorm((512,), eps=1e-12, elementwise_affine=True)
              (dropout): Dropout(p=0.1, inplace=False)
            )
          )
          (intermediate): BertIntermediate(
            (dense): Linear(in_features=512, out_features=2048, bias=True)
            (intermediate_act_fn): GELUActivation()
          )
          (output): BertOutput(
            (dense): Linear(in_features=2048, out_features=512, bias=True)
            (LayerNorm): LayerNorm((512,), eps=1e-12, elementwise_affine=True)
            (dropout): Dropout(p=0.1, inplace=False)
          )
        )
      )
    )
    (pooler): BertPooler(
      (dense): Linear(in_features=512, out_features=512, bias=True)
      (activation): Tanh()
    )
  )
  (dropout): Dropout(p=0.1, inplace=False)
  (classifier): Linear(in_features=512, out_features=2, bias=True)
).
[W 2025-02-02 22:10:21,190] Trial 9 failed with parameters: {'num_layers': 0, 'num_heads': 3, 'hidden_size': 2, 'intermediate_size': 0, 'bert.encoder.layer.0.attention.self.query_type': 'identity', 'bert.encoder.layer.0.attention.self.key_type': 'linear', 'bert.encoder.layer.0.attention.self.value_type': 'linear', 'bert.encoder.layer.0.attention.output.dense_type': 'linear', 'bert.encoder.layer.1.attention.self.query_type': 'linear', 'bert.encoder.layer.1.attention.self.key_type': 'linear', 'bert.encoder.layer.1.attention.self.value_type': 'linear', 'bert.encoder.layer.1.attention.output.dense_type': 'linear', 'bert.pooler.dense_type': 'linear'} because of the following error: The value BertForSequenceClassification(
  (bert): BertModel(
    (embeddings): BertEmbeddings(
      (word_embeddings): Embedding(30522, 256, padding_idx=0)
      (position_embeddings): Embedding(512, 256)
      (token_type_embeddings): Embedding(2, 256)
      (LayerNorm): LayerNorm((256,), eps=1e-12, elementwise_affine=True)
      (dropout): Dropout(p=0.1, inplace=False)
    )
    (encoder): BertEncoder(
      (layer): ModuleList(
        (0): BertLayer(
          (attention): BertAttention(
            (self): BertSdpaSelfAttention(
              (query): Identity()
              (key): Linear(in_features=256, out_features=256, bias=True)
              (value): Linear(in_features=256, out_features=256, bias=True)
              (dropout): Dropout(p=0.1, inplace=False)
            )
            (output): BertSelfOutput(
              (dense): Linear(in_features=256, out_features=256, bias=True)
              (LayerNorm): LayerNorm((256,), eps=1e-12, elementwise_affine=True)
              (dropout): Dropout(p=0.1, inplace=False)
            )
          )
          (intermediate): BertIntermediate(
            (dense): Linear(in_features=256, out_features=512, bias=True)
            (intermediate_act_fn): GELUActivation()
          )
          (output): BertOutput(
            (dense): Linear(in_features=512, out_features=256, bias=True)
            (LayerNorm): LayerNorm((256,), eps=1e-12, elementwise_affine=True)
            (dropout): Dropout(p=0.1, inplace=False)
          )
        )
        (1): BertLayer(
          (attention): BertAttention(
            (self): BertSdpaSelfAttention(
              (query): Linear(in_features=256, out_features=256, bias=True)
              (key): Linear(in_features=256, out_features=256, bias=True)
              (value): Linear(in_features=256, out_features=256, bias=True)
              (dropout): Dropout(p=0.1, inplace=False)
            )
            (output): BertSelfOutput(
              (dense): Linear(in_features=256, out_features=256, bias=True)
              (LayerNorm): LayerNorm((256,), eps=1e-12, elementwise_affine=True)
              (dropout): Dropout(p=0.1, inplace=False)
            )
          )
          (intermediate): BertIntermediate(
            (dense): Linear(in_features=256, out_features=512, bias=True)
            (intermediate_act_fn): GELUActivation()
          )
          (output): BertOutput(
            (dense): Linear(in_features=512, out_features=256, bias=True)
            (LayerNorm): LayerNorm((256,), eps=1e-12, elementwise_affine=True)
            (dropout): Dropout(p=0.1, inplace=False)
          )
        )
      )
    )
    (pooler): BertPooler(
      (dense): Linear(in_features=256, out_features=256, bias=True)
      (activation): Tanh()
    )
  )
  (dropout): Dropout(p=0.1, inplace=False)
  (classifier): Linear(in_features=256, out_features=2, bias=True)
) could not be cast to float.
[W 2025-02-02 22:10:21,190] Trial 9 failed with value BertForSequenceClassification(
  (bert): BertModel(
    (embeddings): BertEmbeddings(
      (word_embeddings): Embedding(30522, 256, padding_idx=0)
      (position_embeddings): Embedding(512, 256)
      (token_type_embeddings): Embedding(2, 256)
      (LayerNorm): LayerNorm((256,), eps=1e-12, elementwise_affine=True)
      (dropout): Dropout(p=0.1, inplace=False)
    )
    (encoder): BertEncoder(
      (layer): ModuleList(
        (0): BertLayer(
          (attention): BertAttention(
            (self): BertSdpaSelfAttention(
              (query): Identity()
              (key): Linear(in_features=256, out_features=256, bias=True)
              (value): Linear(in_features=256, out_features=256, bias=True)
              (dropout): Dropout(p=0.1, inplace=False)
            )
            (output): BertSelfOutput(
              (dense): Linear(in_features=256, out_features=256, bias=True)
              (LayerNorm): LayerNorm((256,), eps=1e-12, elementwise_affine=True)
              (dropout): Dropout(p=0.1, inplace=False)
            )
          )
          (intermediate): BertIntermediate(
            (dense): Linear(in_features=256, out_features=512, bias=True)
            (intermediate_act_fn): GELUActivation()
          )
          (output): BertOutput(
            (dense): Linear(in_features=512, out_features=256, bias=True)
            (LayerNorm): LayerNorm((256,), eps=1e-12, elementwise_affine=True)
            (dropout): Dropout(p=0.1, inplace=False)
          )
        )
        (1): BertLayer(
          (attention): BertAttention(
            (self): BertSdpaSelfAttention(
              (query): Linear(in_features=256, out_features=256, bias=True)
              (key): Linear(in_features=256, out_features=256, bias=True)
              (value): Linear(in_features=256, out_features=256, bias=True)
              (dropout): Dropout(p=0.1, inplace=False)
            )
            (output): BertSelfOutput(
              (dense): Linear(in_features=256, out_features=256, bias=True)
              (LayerNorm): LayerNorm((256,), eps=1e-12, elementwise_affine=True)
              (dropout): Dropout(p=0.1, inplace=False)
            )
          )
          (intermediate): BertIntermediate(
            (dense): Linear(in_features=256, out_features=512, bias=True)
            (intermediate_act_fn): GELUActivation()
          )
          (output): BertOutput(
            (dense): Linear(in_features=512, out_features=256, bias=True)
            (LayerNorm): LayerNorm((256,), eps=1e-12, elementwise_affine=True)
            (dropout): Dropout(p=0.1, inplace=False)
          )
        )
      )
    )
    (pooler): BertPooler(
      (dense): Linear(in_features=256, out_features=256, bias=True)
      (activation): Tanh()
    )
  )
  (dropout): Dropout(p=0.1, inplace=False)
  (classifier): Linear(in_features=256, out_features=2, bias=True)
).
[W 2025-02-02 22:10:21,427] Trial 10 failed with parameters: {'num_layers': 1, 'num_heads': 3, 'hidden_size': 3, 'intermediate_size': 0, 'bert.encoder.layer.0.attention.self.query_type': 'linear', 'bert.encoder.layer.0.attention.self.key_type': 'linear', 'bert.encoder.layer.0.attention.self.value_type': 'linear', 'bert.encoder.layer.0.attention.output.dense_type': 'linear', 'bert.encoder.layer.1.attention.self.query_type': 'identity', 'bert.encoder.layer.1.attention.self.key_type': 'identity', 'bert.encoder.layer.1.attention.self.value_type': 'identity', 'bert.encoder.layer.1.attention.output.dense_type': 'identity', 'bert.pooler.dense_type': 'identity'} because of the following error: The value BertForSequenceClassification(
  (bert): BertModel(
    (embeddings): BertEmbeddings(
      (word_embeddings): Embedding(30522, 384, padding_idx=0)
      (position_embeddings): Embedding(512, 384)
      (token_type_embeddings): Embedding(2, 384)
      (LayerNorm): LayerNorm((384,), eps=1e-12, elementwise_affine=True)
      (dropout): Dropout(p=0.1, inplace=False)
    )
    (encoder): BertEncoder(
      (layer): ModuleList(
        (0): BertLayer(
          (attention): BertAttention(
            (self): BertSdpaSelfAttention(
              (query): Linear(in_features=384, out_features=384, bias=True)
              (key): Linear(in_features=384, out_features=384, bias=True)
              (value): Linear(in_features=384, out_features=384, bias=True)
              (dropout): Dropout(p=0.1, inplace=False)
            )
            (output): BertSelfOutput(
              (dense): Linear(in_features=384, out_features=384, bias=True)
              (LayerNorm): LayerNorm((384,), eps=1e-12, elementwise_affine=True)
              (dropout): Dropout(p=0.1, inplace=False)
            )
          )
          (intermediate): BertIntermediate(
            (dense): Linear(in_features=384, out_features=512, bias=True)
            (intermediate_act_fn): GELUActivation()
          )
          (output): BertOutput(
            (dense): Linear(in_features=512, out_features=384, bias=True)
            (LayerNorm): LayerNorm((384,), eps=1e-12, elementwise_affine=True)
            (dropout): Dropout(p=0.1, inplace=False)
          )
        )
        (1): BertLayer(
          (attention): BertAttention(
            (self): BertSdpaSelfAttention(
              (query): Identity()
              (key): Identity()
              (value): Identity()
              (dropout): Dropout(p=0.1, inplace=False)
            )
            (output): BertSelfOutput(
              (dense): Identity()
              (LayerNorm): LayerNorm((384,), eps=1e-12, elementwise_affine=True)
              (dropout): Dropout(p=0.1, inplace=False)
            )
          )
          (intermediate): BertIntermediate(
            (dense): Linear(in_features=384, out_features=512, bias=True)
            (intermediate_act_fn): GELUActivation()
          )
          (output): BertOutput(
            (dense): Linear(in_features=512, out_features=384, bias=True)
            (LayerNorm): LayerNorm((384,), eps=1e-12, elementwise_affine=True)
            (dropout): Dropout(p=0.1, inplace=False)
          )
        )
      )
    )
    (pooler): BertPooler(
      (dense): Identity()
      (activation): Tanh()
    )
  )
  (dropout): Dropout(p=0.1, inplace=False)
  (classifier): Linear(in_features=384, out_features=2, bias=True)
) could not be cast to float.
[W 2025-02-02 22:10:21,427] Trial 10 failed with value BertForSequenceClassification(
  (bert): BertModel(
    (embeddings): BertEmbeddings(
      (word_embeddings): Embedding(30522, 384, padding_idx=0)
      (position_embeddings): Embedding(512, 384)
      (token_type_embeddings): Embedding(2, 384)
      (LayerNorm): LayerNorm((384,), eps=1e-12, elementwise_affine=True)
      (dropout): Dropout(p=0.1, inplace=False)
    )
    (encoder): BertEncoder(
      (layer): ModuleList(
        (0): BertLayer(
          (attention): BertAttention(
            (self): BertSdpaSelfAttention(
              (query): Linear(in_features=384, out_features=384, bias=True)
              (key): Linear(in_features=384, out_features=384, bias=True)
              (value): Linear(in_features=384, out_features=384, bias=True)
              (dropout): Dropout(p=0.1, inplace=False)
            )
            (output): BertSelfOutput(
              (dense): Linear(in_features=384, out_features=384, bias=True)
              (LayerNorm): LayerNorm((384,), eps=1e-12, elementwise_affine=True)
              (dropout): Dropout(p=0.1, inplace=False)
            )
          )
          (intermediate): BertIntermediate(
            (dense): Linear(in_features=384, out_features=512, bias=True)
            (intermediate_act_fn): GELUActivation()
          )
          (output): BertOutput(
            (dense): Linear(in_features=512, out_features=384, bias=True)
            (LayerNorm): LayerNorm((384,), eps=1e-12, elementwise_affine=True)
            (dropout): Dropout(p=0.1, inplace=False)
          )
        )
        (1): BertLayer(
          (attention): BertAttention(
            (self): BertSdpaSelfAttention(
              (query): Identity()
              (key): Identity()
              (value): Identity()
              (dropout): Dropout(p=0.1, inplace=False)
            )
            (output): BertSelfOutput(
              (dense): Identity()
              (LayerNorm): LayerNorm((384,), eps=1e-12, elementwise_affine=True)
              (dropout): Dropout(p=0.1, inplace=False)
            )
          )
          (intermediate): BertIntermediate(
            (dense): Linear(in_features=384, out_features=512, bias=True)
            (intermediate_act_fn): GELUActivation()
          )
          (output): BertOutput(
            (dense): Linear(in_features=512, out_features=384, bias=True)
            (LayerNorm): LayerNorm((384,), eps=1e-12, elementwise_affine=True)
            (dropout): Dropout(p=0.1, inplace=False)
          )
        )
      )
    )
    (pooler): BertPooler(
      (dense): Identity()
      (activation): Tanh()
    )
  )
  (dropout): Dropout(p=0.1, inplace=False)
  (classifier): Linear(in_features=384, out_features=2, bias=True)
).
[W 2025-02-02 22:10:21,594] Trial 11 failed with parameters: {'num_layers': 0, 'num_heads': 0, 'hidden_size': 1, 'intermediate_size': 1, 'bert.encoder.layer.0.attention.self.query_type': 'identity', 'bert.encoder.layer.0.attention.self.key_type': 'identity', 'bert.encoder.layer.0.attention.self.value_type': 'identity', 'bert.encoder.layer.0.attention.output.dense_type': 'identity', 'bert.encoder.layer.1.attention.self.query_type': 'identity', 'bert.encoder.layer.1.attention.self.key_type': 'identity', 'bert.encoder.layer.1.attention.self.value_type': 'identity', 'bert.encoder.layer.1.attention.output.dense_type': 'identity', 'bert.pooler.dense_type': 'linear'} because of the following error: The value BertForSequenceClassification(
  (bert): BertModel(
    (embeddings): BertEmbeddings(
      (word_embeddings): Embedding(30522, 192, padding_idx=0)
      (position_embeddings): Embedding(512, 192)
      (token_type_embeddings): Embedding(2, 192)
      (LayerNorm): LayerNorm((192,), eps=1e-12, elementwise_affine=True)
      (dropout): Dropout(p=0.1, inplace=False)
    )
    (encoder): BertEncoder(
      (layer): ModuleList(
        (0-1): 2 x BertLayer(
          (attention): BertAttention(
            (self): BertSdpaSelfAttention(
              (query): Identity()
              (key): Identity()
              (value): Identity()
              (dropout): Dropout(p=0.1, inplace=False)
            )
            (output): BertSelfOutput(
              (dense): Identity()
              (LayerNorm): LayerNorm((192,), eps=1e-12, elementwise_affine=True)
              (dropout): Dropout(p=0.1, inplace=False)
            )
          )
          (intermediate): BertIntermediate(
            (dense): Linear(in_features=192, out_features=768, bias=True)
            (intermediate_act_fn): GELUActivation()
          )
          (output): BertOutput(
            (dense): Linear(in_features=768, out_features=192, bias=True)
            (LayerNorm): LayerNorm((192,), eps=1e-12, elementwise_affine=True)
            (dropout): Dropout(p=0.1, inplace=False)
          )
        )
      )
    )
    (pooler): BertPooler(
      (dense): Linear(in_features=192, out_features=192, bias=True)
      (activation): Tanh()
    )
  )
  (dropout): Dropout(p=0.1, inplace=False)
  (classifier): Linear(in_features=192, out_features=2, bias=True)
) could not be cast to float.
[W 2025-02-02 22:10:21,594] Trial 11 failed with value BertForSequenceClassification(
  (bert): BertModel(
    (embeddings): BertEmbeddings(
      (word_embeddings): Embedding(30522, 192, padding_idx=0)
      (position_embeddings): Embedding(512, 192)
      (token_type_embeddings): Embedding(2, 192)
      (LayerNorm): LayerNorm((192,), eps=1e-12, elementwise_affine=True)
      (dropout): Dropout(p=0.1, inplace=False)
    )
    (encoder): BertEncoder(
      (layer): ModuleList(
        (0-1): 2 x BertLayer(
          (attention): BertAttention(
            (self): BertSdpaSelfAttention(
              (query): Identity()
              (key): Identity()
              (value): Identity()
              (dropout): Dropout(p=0.1, inplace=False)
            )
            (output): BertSelfOutput(
              (dense): Identity()
              (LayerNorm): LayerNorm((192,), eps=1e-12, elementwise_affine=True)
              (dropout): Dropout(p=0.1, inplace=False)
            )
          )
          (intermediate): BertIntermediate(
            (dense): Linear(in_features=192, out_features=768, bias=True)
            (intermediate_act_fn): GELUActivation()
          )
          (output): BertOutput(
            (dense): Linear(in_features=768, out_features=192, bias=True)
            (LayerNorm): LayerNorm((192,), eps=1e-12, elementwise_affine=True)
            (dropout): Dropout(p=0.1, inplace=False)
          )
        )
      )
    )
    (pooler): BertPooler(
      (dense): Linear(in_features=192, out_features=192, bias=True)
      (activation): Tanh()
    )
  )
  (dropout): Dropout(p=0.1, inplace=False)
  (classifier): Linear(in_features=192, out_features=2, bias=True)
).
[W 2025-02-02 22:10:21,886] Trial 12 failed with parameters: {'num_layers': 0, 'num_heads': 2, 'hidden_size': 4, 'intermediate_size': 0, 'bert.encoder.layer.0.attention.self.query_type': 'linear', 'bert.encoder.layer.0.attention.self.key_type': 'linear', 'bert.encoder.layer.0.attention.self.value_type': 'identity', 'bert.encoder.layer.0.attention.outp
…
r', 'bert.encoder.layer.0.output.dense_type': 'linear', 'bert.encoder.layer.1.attention.self.query_type': 'linear', 'bert.encoder.layer.1.attention.self.key_type': 'linear', 'bert.encoder.layer.1.attention.self.value_type': 'linear', 'bert.encoder.layer.1.attention.output.dense_type': 'identity', 'bert.encoder.layer.1.intermediate.dense_type': 'identity', 'bert.encoder.layer.1.output.dense_type': 'identity', 'bert.pooler.dense_type': 'identity'} because of the following error: The value BertForSequenceClassification(
  (bert): BertModel(
    (embeddings): BertEmbeddings(
      (word_embeddings): Embedding(30522, 512, padding_idx=0)
      (position_embeddings): Embedding(512, 512)
      (token_type_embeddings): Embedding(2, 512)
      (LayerNorm): LayerNorm((512,), eps=1e-12, elementwise_affine=True)
      (dropout): Dropout(p=0.1, inplace=False)
    )
    (encoder): BertEncoder(
      (layer): ModuleList(
        (0): BertLayer(
          (attention): BertAttention(
            (self): BertSdpaSelfAttention(
              (query): Linear(in_features=512, out_features=512, bias=True)
              (key): Linear(in_features=512, out_features=512, bias=True)
              (value): Identity()
              (dropout): Dropout(p=0.1, inplace=False)
            )
            (output): BertSelfOutput(
              (dense): Identity()
              (LayerNorm): LayerNorm((512,), eps=1e-12, elementwise_affine=True)
              (dropout): Dropout(p=0.1, inplace=False)
            )
          )
          (intermediate): BertIntermediate(
            (dense): Linear(in_features=512, out_features=512, bias=True)
            (intermediate_act_fn): GELUActivation()
          )
          (output): BertOutput(
            (dense): Linear(in_features=512, out_features=512, bias=True)
            (LayerNorm): LayerNorm((512,), eps=1e-12, elementwise_affine=True)
            (dropout): Dropout(p=0.1, inplace=False)
          )
        )
        (1): BertLayer(
          (attention): BertAttention(
            (self): BertSdpaSelfAttention(
              (query): Linear(in_features=512, out_features=512, bias=True)
              (key): Linear(in_features=512, out_features=512, bias=True)
              (value): Linear(in_features=512, out_features=512, bias=True)
              (dropout): Dropout(p=0.1, inplace=False)
            )
            (output): BertSelfOutput(
              (dense): Identity()
              (LayerNorm): LayerNorm((512,), eps=1e-12, elementwise_affine=True)
              (dropout): Dropout(p=0.1, inplace=False)
            )
          )
          (intermediate): BertIntermediate(
            (dense): Identity()
            (intermediate_act_fn): GELUActivation()
          )
          (output): BertOutput(
            (dense): Identity()
            (LayerNorm): LayerNorm((512,), eps=1e-12, elementwise_affine=True)
            (dropout): Dropout(p=0.1, inplace=False)
          )
        )
      )
    )
    (pooler): BertPooler(
      (dense): Identity()
      (activation): Tanh()
    )
  )
  (dropout): Dropout(p=0.1, inplace=False)
  (classifier): Linear(in_features=512, out_features=2, bias=True)
) could not be cast to float.
[W 2025-02-02 22:10:21,887] Trial 12 failed with value BertForSequenceClassification(
  (bert): BertModel(
    (embeddings): BertEmbeddings(
      (word_embeddings): Embedding(30522, 512, padding_idx=0)
      (position_embeddings): Embedding(512, 512)
      (token_type_embeddings): Embedding(2, 512)
      (LayerNorm): LayerNorm((512,), eps=1e-12, elementwise_affine=True)
      (dropout): Dropout(p=0.1, inplace=False)
    )
    (encoder): BertEncoder(
      (layer): ModuleList(
        (0): BertLayer(
          (attention): BertAttention(
            (self): BertSdpaSelfAttention(
              (query): Linear(in_features=512, out_features=512, bias=True)
              (key): Linear(in_features=512, out_features=512, bias=True)
              (value): Identity()
              (dropout): Dropout(p=0.1, inplace=False)
            )
            (output): BertSelfOutput(
              (dense): Identity()
              (LayerNorm): LayerNorm((512,), eps=1e-12, elementwise_affine=True)
              (dropout): Dropout(p=0.1, inplace=False)
            )
          )
          (intermediate): BertIntermediate(
            (dense): Linear(in_features=512, out_features=512, bias=True)
            (intermediate_act_fn): GELUActivation()
          )
          (output): BertOutput(
            (dense): Linear(in_features=512, out_features=512, bias=True)
            (LayerNorm): LayerNorm((512,), eps=1e-12, elementwise_affine=True)
            (dropout): Dropout(p=0.1, inplace=False)
          )
        )
        (1): BertLayer(
          (attention): BertAttention(
            (self): BertSdpaSelfAttention(
              (query): Linear(in_features=512, out_features=512, bias=True)
              (key): Linear(in_features=512, out_features=512, bias=True)
              (value): Linear(in_features=512, out_features=512, bias=True)
              (dropout): Dropout(p=0.1, inplace=False)
            )
            (output): BertSelfOutput(
              (dense): Identity()
              (LayerNorm): LayerNorm((512,), eps=1e-12, elementwise_affine=True)
              (dropout): Dropout(p=0.1, inplace=False)
            )
          )
          (intermediate): BertIntermediate(
            (dense): Identity()
            (intermediate_act_fn): GELUActivation()
          )
          (output): BertOutput(
            (dense): Identity()
            (LayerNorm): LayerNorm((512,), eps=1e-12, elementwise_affine=True)
            (dropout): Dropout(p=0.1, inplace=False)
          )
        )
      )
    )
    (pooler): BertPooler(
      (dense): Identity()
      (activation): Tanh()
    )
  )
  (dropout): Dropout(p=0.1, inplace=False)
  (classifier): Linear(in_features=512, out_features=2, bias=True)
).
[W 2025-02-02 22:10:22,212] Trial 13 failed with parameters: {'num_layers': 1, 'num_heads': 0, 'hidden_size': 4, 'intermediate_size': 4, 'bert.encoder.layer.0.attention.self.query_type': 'identity', 'bert.encoder.layer.0.attention.self.key_type': 'identity', 'bert.encoder.layer.0.attention.self.value_type': 'linear', 'bert.encoder.layer.0.attention.output.dense_type': 'linear', 'bert.encoder.layer.1.attention.self.query_type': 'linear', 'bert.encoder.layer.1.attention.self.key_type': 'identity', 'bert.encoder.layer.1.attention.self.value_type': 'identity', 'bert.encoder.layer.1.attention.output.dense_type': 'linear', 'bert.pooler.dense_type': 'linear'} because of the following error: The value BertForSequenceClassification(
  (bert): BertModel(
    (embeddings): BertEmbeddings(
      (word_embeddings): Embedding(30522, 512, padding_idx=0)
      (position_embeddings): Embedding(512, 512)
      (token_type_embeddings): Embedding(2, 512)
      (LayerNorm): LayerNorm((512,), eps=1e-12, elementwise_affine=True)
      (dropout): Dropout(p=0.1, inplace=False)
    )
    (encoder): BertEncoder(
      (layer): ModuleList(
        (0): BertLayer(
          (attention): BertAttention(
            (self): BertSdpaSelfAttention(
              (query): Identity()
              (key): Identity()
              (value): Linear(in_features=512, out_features=512, bias=True)
              (dropout): Dropout(p=0.1, inplace=False)
            )
            (output): BertSelfOutput(
              (dense): Linear(in_features=512, out_features=512, bias=True)
              (LayerNorm): LayerNorm((512,), eps=1e-12, elementwise_affine=True)
              (dropout): Dropout(p=0.1, inplace=False)
            )
          )
          (intermediate): BertIntermediate(
            (dense): Linear(in_features=512, out_features=2048, bias=True)
            (intermediate_act_fn): GELUActivation()
          )
          (output): BertOutput(
            (dense): Linear(in_features=2048, out_features=512, bias=True)
            (LayerNorm): LayerNorm((512,), eps=1e-12, elementwise_affine=True)
            (dropout): Dropout(p=0.1, inplace=False)
          )
        )
        (1): BertLayer(
          (attention): BertAttention(
            (self): BertSdpaSelfAttention(
              (query): Linear(in_features=512, out_features=512, bias=True)
              (key): Identity()
              (value): Identity()
              (dropout): Dropout(p=0.1, inplace=False)
            )
            (output): BertSelfOutput(
              (dense): Linear(in_features=512, out_features=512, bias=True)
              (LayerNorm): LayerNorm((512,), eps=1e-12, elementwise_affine=True)
              (dropout): Dropout(p=0.1, inplace=False)
            )
          )
          (intermediate): BertIntermediate(
            (dense): Linear(in_features=512, out_features=2048, bias=True)
            (intermediate_act_fn): GELUActivation()
          )
          (output): BertOutput(
            (dense): Linear(in_features=2048, out_features=512, bias=True)
            (LayerNorm): LayerNorm((512,), eps=1e-12, elementwise_affine=True)
            (dropout): Dropout(p=0.1, inplace=False)
          )
        )
      )
    )
    (pooler): BertPooler(
      (dense): Linear(in_features=512, out_features=512, bias=True)
      (activation): Tanh()
    )
  )
  (dropout): Dropout(p=0.1, inplace=False)
  (classifier): Linear(in_features=512, out_features=2, bias=True)
) could not be cast to float.
[W 2025-02-02 22:10:22,212] Trial 13 failed with value BertForSequenceClassification(
  (bert): BertModel(
    (embeddings): BertEmbeddings(
      (word_embeddings): Embedding(30522, 512, padding_idx=0)
      (position_embeddings): Embedding(512, 512)
      (token_type_embeddings): Embedding(2, 512)
      (LayerNorm): LayerNorm((512,), eps=1e-12, elementwise_affine=True)
      (dropout): Dropout(p=0.1, inplace=False)
    )
    (encoder): BertEncoder(
      (layer): ModuleList(
        (0): BertLayer(
          (attention): BertAttention(
            (self): BertSdpaSelfAttention(
              (query): Identity()
              (key): Identity()
              (value): Linear(in_features=512, out_features=512, bias=True)
              (dropout): Dropout(p=0.1, inplace=False)
            )
            (output): BertSelfOutput(
              (dense): Linear(in_features=512, out_features=512, bias=True)
              (LayerNorm): LayerNorm((512,), eps=1e-12, elementwise_affine=True)
              (dropout): Dropout(p=0.1, inplace=False)
            )
          )
          (intermediate): BertIntermediate(
            (dense): Linear(in_features=512, out_features=2048, bias=True)
            (intermediate_act_fn): GELUActivation()
          )
          (output): BertOutput(
            (dense): Linear(in_features=2048, out_features=512, bias=True)
            (LayerNorm): LayerNorm((512,), eps=1e-12, elementwise_affine=True)
            (dropout): Dropout(p=0.1, inplace=False)
          )
        )
        (1): BertLayer(
          (attention): BertAttention(
            (self): BertSdpaSelfAttention(
              (query): Linear(in_features=512, out_features=512, bias=True)
              (key): Identity()
              (value): Identity()
              (dropout): Dropout(p=0.1, inplace=False)
            )
            (output): BertSelfOutput(
              (dense): Linear(in_features=512, out_features=512, bias=True)
              (LayerNorm): LayerNorm((512,), eps=1e-12, elementwise_affine=True)
              (dropout): Dropout(p=0.1, inplace=False)
            )
          )
          (intermediate): BertIntermediate(
            (dense): Linear(in_features=512, out_features=2048, bias=True)
            (intermediate_act_fn): GELUActivation()
          )
          (output): BertOutput(
            (dense): Linear(in_features=2048, out_features=512, bias=True)
            (LayerNorm): LayerNorm((512,), eps=1e-12, elementwise_affine=True)
            (dropout): Dropout(p=0.1, inplace=False)
          )
        )
      )
    )
    (pooler): BertPooler(
      (dense): Linear(in_features=512, out_features=512, bias=True)
      (activation): Tanh()
    )
  )
  (dropout): Dropout(p=0.1, inplace=False)
  (classifier): Linear(in_features=512, out_features=2, bias=True)
).
[W 2025-02-02 22:10:22,360] Trial 14 failed with parameters: {'num_layers': 1, 'num_heads': 0, 'hidden_size': 0, 'intermediate_size': 3, 'bert.encoder.layer.0.attention.self.query_type': 'identity', 'bert.encoder.layer.0.attention.self.key_type': 'linear', 'bert.encoder.layer.0.attention.self.value_type': 'linear', 'bert.encoder.layer.0.attention.output.dense_type': 'identity', 'bert.encoder.layer.1.attention.self.query_type': 'linear', 'bert.encoder.layer.1.attention.self.key_type': 'linear', 'bert.encoder.layer.1.attention.self.value_type': 'linear', 'bert.encoder.layer.1.attention.output.dense_type': 'linear', 'bert.pooler.dense_type': 'identity'} because of the following error: The value BertForSequenceClassification(
  (bert): BertModel(
    (embeddings): BertEmbeddings(
      (word_embeddings): Embedding(30522, 128, padding_idx=0)
      (position_embeddings): Embedding(512, 128)
      (token_type_embeddings): Embedding(2, 128)
      (LayerNorm): LayerNorm((128,), eps=1e-12, elementwise_affine=True)
      (dropout): Dropout(p=0.1, inplace=False)
    )
    (encoder): BertEncoder(
      (layer): ModuleList(
        (0): BertLayer(
          (attention): BertAttention(
            (self): BertSdpaSelfAttention(
              (query): Identity()
              (key): Linear(in_features=128, out_features=128, bias=True)
              (value): Linear(in_features=128, out_features=128, bias=True)
              (dropout): Dropout(p=0.1, inplace=False)
            )
            (output): BertSelfOutput(
              (dense): Identity()
              (LayerNorm): LayerNorm((128,), eps=1e-12, elementwise_affine=True)
              (dropout): Dropout(p=0.1, inplace=False)
            )
          )
          (intermediate): BertIntermediate(
            (dense): Linear(in_features=128, out_features=1536, bias=True)
            (intermediate_act_fn): GELUActivation()
          )
          (output): BertOutput(
            (dense): Linear(in_features=1536, out_features=128, bias=True)
            (LayerNorm): LayerNorm((128,), eps=1e-12, elementwise_affine=True)
            (dropout): Dropout(p=0.1, inplace=False)
          )
        )
        (1): BertLayer(
          (attention): BertAttention(
            (self): BertSdpaSelfAttention(
              (query): Linear(in_features=128, out_features=128, bias=True)
              (key): Linear(in_features=128, out_features=128, bias=True)
              (value): Linear(in_features=128, out_features=128, bias=True)
              (dropout): Dropout(p=0.1, inplace=False)
            )
            (output): BertSelfOutput(
              (dense): Linear(in_features=128, out_features=128, bias=True)
              (LayerNorm): LayerNorm((128,), eps=1e-12, elementwise_affine=True)
              (dropout): Dropout(p=0.1, inplace=False)
            )
          )
          (intermediate): BertIntermediate(
            (dense): Linear(in_features=128, out_features=1536, bias=True)
            (intermediate_act_fn): GELUActivation()
          )
          (output): BertOutput(
            (dense): Linear(in_features=1536, out_features=128, bias=True)
            (LayerNorm): LayerNorm((128,), eps=1e-12, elementwise_affine=True)
            (dropout): Dropout(p=0.1, inplace=False)
          )
        )
      )
    )
    (pooler): BertPooler(
      (dense): Identity()
      (activation): Tanh()
    )
  )
  (dropout): Dropout(p=0.1, inplace=False)
  (classifier): Linear(in_features=128, out_features=2, bias=True)
) could not be cast to float.
[W 2025-02-02 22:10:22,361] Trial 14 failed with value BertForSequenceClassification(
  (bert): BertModel(
    (embeddings): BertEmbeddings(
      (word_embeddings): Embedding(30522, 128, padding_idx=0)
      (position_embeddings): Embedding(512, 128)
      (token_type_embeddings): Embedding(2, 128)
      (LayerNorm): LayerNorm((128,), eps=1e-12, elementwise_affine=True)
      (dropout): Dropout(p=0.1, inplace=False)
    )
    (encoder): BertEncoder(
      (layer): ModuleList(
        (0): BertLayer(
          (attention): BertAttention(
            (self): BertSdpaSelfAttention(
              (query): Identity()
              (key): Linear(in_features=128, out_features=128, bias=True)
              (value): Linear(in_features=128, out_features=128, bias=True)
              (dropout): Dropout(p=0.1, inplace=False)
            )
            (output): BertSelfOutput(
              (dense): Identity()
              (LayerNorm): LayerNorm((128,), eps=1e-12, elementwise_affine=True)
              (dropout): Dropout(p=0.1, inplace=False)
            )
          )
          (intermediate): BertIntermediate(
            (dense): Linear(in_features=128, out_features=1536, bias=True)
            (intermediate_act_fn): GELUActivation()
          )
          (output): BertOutput(
            (dense): Linear(in_features=1536, out_features=128, bias=True)
            (LayerNorm): LayerNorm((128,), eps=1e-12, elementwise_affine=True)
            (dropout): Dropout(p=0.1, inplace=False)
          )
        )
        (1): BertLayer(
          (attention): BertAttention(
            (self): BertSdpaSelfAttention(
              (query): Linear(in_features=128, out_features=128, bias=True)
              (key): Linear(in_features=128, out_features=128, bias=True)
              (value): Linear(in_features=128, out_features=128, bias=True)
              (dropout): Dropout(p=0.1, inplace=False)
            )
            (output): BertSelfOutput(
              (dense): Linear(in_features=128, out_features=128, bias=True)
              (LayerNorm): LayerNorm((128,), eps=1e-12, elementwise_affine=True)
              (dropout): Dropout(p=0.1, inplace=False)
            )
          )
          (intermediate): BertIntermediate(
            (dense): Linear(in_features=128, out_features=1536, bias=True)
            (intermediate_act_fn): GELUActivation()
          )
          (output): BertOutput(
            (dense): Linear(in_features=1536, out_features=128, bias=True)
            (LayerNorm): LayerNorm((128,), eps=1e-12, elementwise_affine=True)
            (dropout): Dropout(p=0.1, inplace=False)
          )
        )
      )
    )
    (pooler): BertPooler(
      (dense): Identity()
      (activation): Tanh()
    )
  )
  (dropout): Dropout(p=0.1, inplace=False)
  (classifier): Linear(in_features=128, out_features=2, bias=True)
).
[W 2025-02-02 22:10:22,603] Trial 15 failed with parameters: {'num_layers': 1, 'num_heads': 2, 'hidden_size': 1, 'intermediate_size': 1, 'bert.encoder.layer.0.attention.self.query_type': 'identity', 'bert.encoder.layer.0.attention.self.key_type': 'identity', 'bert.encoder.layer.0.attention.self.value_type': 'identity', 'bert.encoder.layer.0.attention.output.dense_type': 'identity', 'bert.encoder.layer.1.attention.self.query_type': 'identity', 'bert.encoder.layer.1.attention.self.key_type': 'linear', 'bert.encoder.layer.1.attention.self.value_type': 'linear', 'bert.encoder.layer.1.attention.output.dense_type': 'linear', 'bert.pooler.dense_type': 'identity'} because of the following error: The value BertForSequenceClassification(
  (bert): BertModel(
    (embeddings): BertEmbeddings(
      (word_embeddings): Embedding(30522, 192, padding_idx=0)
      (position_embeddings): Embedding(512, 192)
      (token_type_embeddings): Embedding(2, 192)
      (LayerNorm): LayerNorm((192,), eps=1e-12, elementwise_affine=True)
      (dropout): Dropout(p=0.1, inplace=False)
    )
    (encoder): BertEncoder(
      (layer): ModuleList(
        (0): BertLayer(
          (attention): BertAttention(
            (self): BertSdpaSelfAttention(
              (query): Identity()
              (key): Identity()
              (value): Identity()
              (dropout): Dropout(p=0.1, inplace=False)
            )
            (output): BertSelfOutput(
              (dense): Identity()
              (LayerNorm): LayerNorm((192,), eps=1e-12, elementwise_affine=True)
              (dropout): Dropout(p=0.1, inplace=False)
            )
          )
          (intermediate): BertIntermediate(
            (dense): Linear(in_features=192, out_features=768, bias=True)
            (intermediate_act_fn): GELUActivation()
          )
          (output): BertOutput(
            (dense): Linear(in_features=768, out_features=192, bias=True)
            (LayerNorm): LayerNorm((192,), eps=1e-12, elementwise_affine=True)
            (dropout): Dropout(p=0.1, inplace=False)
          )
        )
        (1): BertLayer(
          (attention): BertAttention(
            (self): BertSdpaSelfAttention(
              (query): Identity()
              (key): Linear(in_features=192, out_features=192, bias=True)
              (value): Linear(in_features=192, out_features=192, bias=True)
              (dropout): Dropout(p=0.1, inplace=False)
            )
            (output): BertSelfOutput(
              (dense): Linear(in_features=192, out_features=192, bias=True)
              (LayerNorm): LayerNorm((192,), eps=1e-12, elementwise_affine=True)
              (dropout): Dropout(p=0.1, inplace=False)
            )
          )
          (intermediate): BertIntermediate(
            (dense): Linear(in_features=192, out_features=768, bias=True)
            (intermediate_act_fn): GELUActivation()
          )
          (output): BertOutput(
            (dense): Linear(in_features=768, out_features=192, bias=True)
            (LayerNorm): LayerNorm((192,), eps=1e-12, elementwise_affine=True)
            (dropout): Dropout(p=0.1, inplace=False)
          )
        )
      )
    )
    (pooler): BertPooler(
      (dense): Identity()
      (activation): Tanh()
    )
  )
  (dropout): Dropout(p=0.1, inplace=False)
  (classifier): Linear(in_features=192, out_features=2, bias=True)
) could not be cast to float.
[W 2025-02-02 22:10:22,604] Trial 15 failed with value BertForSequenceClassification(
  (bert): BertModel(
    (embeddings): BertEmbeddings(
      (word_embeddings): Embedding(30522, 192, padding_idx=0)
      (position_embeddings): Embedding(512, 192)
      (token_type_embeddings): Embedding(2, 192)
      (LayerNorm): LayerNorm((192,), eps=1e-12, elementwise_affine=True)
      (dropout): Dropout(p=0.1, inplace=False)
    )
    (encoder): BertEncoder(
      (layer): ModuleList(
        (0): BertLayer(
          (attention): BertAttention(
            (self): BertSdpaSelfAttention(
              (query): Identity()
              (key): Identity()
              (value): Identity()
              (dropout): Dropout(p=0.1, inplace=False)
            )
            (output): BertSelfOutput(
              (dense): Identity()
              (LayerNorm): LayerNorm((192,), eps=1e-12, elementwise_affine=True)
              (dropout): Dropout(p=0.1, inplace=False)
            )
          )
          (intermediate): BertIntermediate(
            (dense): Linear(in_features=192, out_features=768, bias=True)
            (intermediate_act_fn): GELUActivation()
          )
          (output): BertOutput(
            (dense): Linear(in_features=768, out_features=192, bias=True)
            (LayerNorm): LayerNorm((192,), eps=1e-12, elementwise_affine=True)
            (dropout): Dropout(p=0.1, inplace=False)
          )
        )
        (1): BertLayer(
          (attention): BertAttention(
            (self): BertSdpaSelfAttention(
              (query): Identity()
              (key): Linear(in_features=192, out_features=192, bias=True)
              (value): Linear(in_features=192, out_features=192, bias=True)
              (dropout): Dropout(p=0.1, inplace=False)
            )
            (output): BertSelfOutput(
              (dense): Linear(in_features=192, out_features=192, bias=True)
              (LayerNorm): LayerNorm((192,), eps=1e-12, elementwise_affine=True)
              (dropout): Dropout(p=0.1, inplace=False)
            )
          )
          (intermediate): BertIntermediate(
            (dense): Linear(in_features=192, out_features=768, bias=True)
            (intermediate_act_fn): GELUActivation()
          )
          (output): BertOutput(
            (dense): Linear(in_features=768, out_features=192, bias=True)
            (LayerNorm): LayerNorm((192,), eps=1e-12, elementwise_affine=True)
            (dropout): Dropout(p=0.1, inplace=False)
          )
        )
      )
    )
    (pooler): BertPooler(
      (dense): Identity()
      (activation): Tanh()
    )
  )
  (dropout): Dropout(p=0.1, inplace=False)
  (classifier): Linear(in_features=192, out_features=2, bias=True)
).
[W 2025-02-02 22:10:22,797] Trial 16 failed with parameters: {'num_layers': 2, 'num_heads': 2, 'hidden_size': 2, 'intermediate_size': 2, 'bert.encoder.layer.0.attention.self.query_type': 'identity', 'bert.encoder.layer.0.attention.self.key_type': 'linear', 'bert.encoder.layer.0.attention.self.value_type': 'identity', 'bert.encoder.layer.0.attention.output.dense_type': 'linear', 'bert.encoder.layer.1.attention.self.query_type': 'linear', 'bert.encoder.layer.1.attention.self.key_type': 'identity', 'bert.encoder.layer.1.attention.self.value_type': 'identity', 'bert.encoder.layer.1.attention.output.dense_type': 'identity', 'bert.pooler.dense_type': 'identity'} because of the following error: The value BertForSequenceClassification(
  (bert): BertModel(
    (embeddings): BertEmbeddings(
      (word_embeddings): Embedding(30522, 256, padding_idx=0)
      (position_embeddings): Embedding(512, 256)
      (token_type_embeddings): Embedding(2, 256)
      (LayerNorm): LayerNorm((256,), eps=1e-12, elementwise_affine=True)
      (dropout): Dropout(p=0.1, inplace=False)
    )
    (encoder): BertEncoder(
      (layer): ModuleList(
        (0): BertLayer(
          (attention): BertAttention(
            (self): BertSdpaSelfAttention(
              (query): Identity()
              (key): Linear(in_features=256, out_features=256, bias=True)
              (value): Identity()
              (dropout): Dropout(p=0.1, inplace=False)
            )
            (output): BertSelfOutput(
              (dense): Linear(in_features=256, out_features=256, bias=True)
              (LayerNorm): LayerNorm((256,), eps=1e-12, elementwise_affine=True)
              (dropout): Dropout(p=0.1, inplace=False)
            )
          )
          (intermediate): BertIntermediate(
            (dense): Linear(in_features=256, out_features=1024, bias=True)
            (intermediate_act_fn): GELUActivation()
          )
          (output): BertOutput(
            (dense): Linear(in_features=1024, out_features=256, bias=True)
            (LayerNorm): LayerNorm((256,), eps=1e-12, elementwise_affine=True)
            (dropout): Dropout(p=0.1, inplace=False)
          )
        )
        (1): BertLayer(
          (attention): BertAttention(
            (self): BertSdpaSelfAttention(
              (query): Linear(in_features=256, out_features=256, bias=True)
              (key): Identity()
              (value): Identity()
              (dropout): Dropout(p=0.1, inplace=False)
            )
            (output): BertSelfOutput(
              (dense): Identity()
              (LayerNorm): LayerNorm((256,), eps=1e-12, elementwise_affine=True)
              (dropout): Dropout(p=0.1, inplace=False)
            )
          )
          (intermediate): BertIntermediate(
            (dense): Linear(in_features=256, out_features=1024, bias=True)
            (intermediate_act_fn): GELUActivation()
          )
          (output): BertOutput(
            (dense): Linear(in_features=1024, out_features=256, bias=True)
            (LayerNorm): LayerNorm((256,), eps=1e-12, elementwise_affine=True)
            (dropout): Dropout(p=0.1, inplace=False)
          )
        )
      )
    )
    (pooler): BertPooler(
      (dense): Identity()
      (activation): Tanh()
    )
  )
  (dropout): Dropout(p=0.1, inplace=False)
  (classifier): Linear(in_features=256, out_features=2, bias=True)
) could not be cast to float.
[W 2025-02-02 22:10:22,797] Trial 16 failed with value BertForSequenceClassification(
  (bert): BertModel(
    (embeddings): BertEmbeddings(
      (word_embeddings): Embedding(30522, 256, padding_idx=0)
      (position_embeddings): Embedding(512, 256)
      (token_type_embeddings): Embedding(2, 256)
      (LayerNorm): LayerNorm((256,), eps=1e-12, elementwise_affine=True)
      (dropout): Dropout(p=0.1, inplace=False)
    )
    (encoder): BertEncoder(
      (layer): ModuleList(
        (0): BertLayer(
          (attention): BertAttention(
            (self): BertSdpaSelfAttention(
              (query): Identity()
              (key): Linear(in_features=256, out_features=256, bias=True)
              (value): Identity()
              (dropout): Dropout(p=0.1, inplace=False)
            )
            (output): BertSelfOutput(
              (dense): Linear(in_features=256, out_features=256, bias=True)
              (LayerNorm): LayerNorm((256,), eps=1e-12, elementwise_affine=True)
              (dropout): Dropout(p=0.1, inplace=False)
            )
          )
          (intermediate): BertIntermediate(
            (dense): Linear(in_features=256, out_features=1024, bias=True)
            (intermediate_act_fn): GELUActivation()
          )
          (output): BertOutput(
            (dense): Linear(in_features=1024, out_features=256, bias=True)
            (LayerNorm): LayerNorm((256,), eps=1e-12, elementwise_affine=True)
            (dropout): Dropout(p=0.1, inplace=False)
          )
        )
        (1): BertLayer(
          (attention): BertAttention(
            (self): BertSdpaSelfAttention(
              (query): Linear(in_features=256, out_features=256, bias=True)
              (key): Identity()
              (value): Identity()
              (dropout): Dropout(p=0.1, inplace=False)
            )
            (output): BertSelfOutput(
              (dense): Identity()
              (LayerNorm): LayerNorm((256,), eps=1e-12, elementwise_affine=True)
              (dropout): Dropout(p=0.1, inplace=False)
            )
          )
          (intermediate): BertIntermediate(
            (dense): Linear(in_features=256, out_features=1024, bias=True)
            (intermediate_act_fn): GELUActivation()
          )
          (output): BertOutput(
            (dense): Linear(in_features=1024, out_features=256, bias=True)
            (LayerNorm): LayerNorm((256,), eps=1e-12, elementwise_affine=True)
            (dropout): Dropout(p=0.1, inplace=False)
          )
        )
      )
    )
    (pooler): BertPooler(
      (dense): Identity()
      (activation): Tanh()
    )
  )
  (dropout): Dropout(p=0.1, inplace=False)
  (classifier): Linear(in_features=256, out_features=2, bias=True)
).
[W 2025-02-02 22:10:23,059] Trial 17 failed with parameters: {'num_layers': 2, 'num_heads': 0, 'hidden_size': 3, 'intermediate_size': 4, 'bert.encoder.layer.0.attention.self.query_type': 'identity', 'bert.encoder.layer.0.attention.self.key_type': 'identity', 'bert.encoder.layer.0.attention.self.value_type': 'identity', 'bert.encoder.layer.0.attention.output.dense_type': 'linear', 'bert.encoder.layer.1.attention.self.query_type': 'identity', 'bert.encoder.layer.1.attention.self.key_type': 'linear', 'bert.encoder.layer.1.attention.self.value_type': 'linear', 'bert.encoder.layer.1.attention.output.dense_type': 'linear', 'bert.pooler.dense_type': 'identity'} because of the following error: The value BertForSequenceClassification(
  (bert): BertModel(
    (embeddings): BertEmbeddings(
      (word_embeddings): Embedding(30522, 384, padding_idx=0)
      (position_embeddings): Embedding(512, 384)
      (token_type_embeddings): Embedding(2, 384)
      (LayerNorm): LayerNorm((384,), eps=1e-12, elementwise_affine=True)
      (dropout): Dropout(p=0.1, inplace=False)
    )
    (encoder): BertEncoder(
      (layer): ModuleList(
        (0): BertLayer(
          (attention): BertAttention(
            (self): BertSdpaSelfAttention(
              (query): Identity()
              (key): Identity()
              (value): Identity()
              (dropout): Dropout(p=0.1, inplace=False)
            )
            (output): BertSelfOutput(
              (dense): Linear(in_features=384, out_features=384, bias=True)
              (LayerNorm): LayerNorm((384,), eps=1e-12, elementwise_affine=True)
              (dropout): Dropout(p=0.1, inplace=False)
            )
          )
          (intermediate): BertIntermediate(
            (dense): Linear(in_features=384, out_features=2048, bias=True)
            (intermediate_act_fn): GELUActivation()
          )
          (output): BertOutput(
            (dense): Linear(in_features=2048, out_features=384, bias=True)
            (LayerNorm): LayerNorm((384,), eps=1e-12, elementwise_affine=True)
            (dropout): Dropout(p=0.1, inplace=False)
          )
        )
        (1): BertLayer(
          (attention): BertAttention(
            (self): BertSdpaSelfAttention(
              (query): Identity()
              (key): Linear(in_features=384, out_features=384, bias=True)
              (value): Linear(in_features=384, out_features=384, bias=True)
              (dropout): Dropout(p=0.1, inplace=False)
            )
            (output): BertSelfOutput(
              (dense): Linear(in_features=384, out_features=384, bias=True)
              (LayerNorm): LayerNorm((384,), eps=1e-12, elementwise_affine=True)
              (dropout): Dropout(p=0.1, inplace=False)
            )
          )
          (intermediate): BertIntermediate(
            (dense): Linear(in_features=384, out_features=2048, bias=True)
            (intermediate_act_fn): GELUActivation()
          )
          (output): BertOutput(
            (dense): Linear(in_features=2048, out_features=384, bias=True)
            (LayerNorm): LayerNorm((384,), eps=1e-12, elementwise_affine=True)
            (dropout): Dropout(p=0.1, inplace=False)
          )
        )
      )
    )
    (pooler): BertPooler(
      (dense): Identity()
      (activation): Tanh()
    )
  )
  (dropout): Dropout(p=0.1, inplace=False)
  (classifier): Linear(in_features=384, out_features=2, bias=True)
) could not be cast to float.
[W 2025-02-02 22:10:23,059] Trial 17 failed with value BertForSequenceClassification(
  (bert): BertModel(
    (embeddings): BertEmbeddings(
      (word_embeddings): Embedding(30522, 384, padding_idx=0)
      (position_embeddings): Embedding(512, 384)
      (token_type_embeddings): Embedding(2, 384)
      (LayerNorm): LayerNorm((384,), eps=1e-12, elementwise_affine=True)
      (dropout): Dropout(p=0.1, inplace=False)
    )
    (encoder): BertEncoder(
      (layer): ModuleList(
        (0): BertLayer(
          (attention): BertAttention(
            (self): BertSdpaSelfAttention(
              (query): Identity()
              (key): Identity()
              (value): Identity()
              (dropout): Dropout(p=0.1, inplace=False)
            )
            (output): BertSelfOutput(
              (dense): Linear(in_features=384, out_features=384, bias=True)
              (LayerNorm): LayerNorm((384,), eps=1e-12, elementwise_affine=True)
              (dropout): Dropout(p=0.1, inplace=False)
            )
          )
          (intermediate): BertIntermediate(
            (dense): Linear(in_features=384, out_features=2048, bias=True)
            (intermediate_act_fn): GELUActivation()
          )
          (output): BertOutput(
            (dense): Linear(in_features=2048, out_features=384, bias=True)
            (LayerNorm): LayerNorm((384,), eps=1e-12, elementwise_affine=True)
            (dropout): Dropout(p=0.1, inplace=False)
          )
        )
        (1): BertLayer(
          (attention): BertAttention(
            (self): BertSdpaSelfAttention(
              (query): Identity()
              (key): Linear(in_features=384, out_features=384, bias=True)
              (value): Linear(in_features=384, out_features=384, bias=True)
              (dropout): Dropout(p=0.1, inplace=False)
            )
            (output): BertSelfOutput(
              (dense): Linear(in_features=384, out_features=384, bias=True)
              (LayerNorm): LayerNorm((384,), eps=1e-12, elementwise_affine=True)
              (dropout): Dropout(p=0.1, inplace=False)
            )
          )
          (intermediate): BertIntermediate(
            (dense): Linear(in_features=384, out_features=2048, bias=True)
            (intermediate_act_fn): GELUActivation()
          )
          (output): BertOutput(
            (dense): Linear(in_features=2048, out_features=384, bias=True)
            (LayerNorm): LayerNorm((384,), eps=1e-12, elementwise_affine=True)
            (dropout): Dropout(p=0.1, inplace=False)
          )
        )
      )
    )
    (pooler): BertPooler(
      (dense): Identity()
      (activation): Tanh()
    )
  )
  (dropout): Dropout(p=0.1, inplace=False)
  (classifier): Linear(in_features=384, out_features=2, bias=True)
).
[W 2025-02-02 22:10:23,204] Trial 18 failed with parameters: {'num_layers': 0, 'num_heads': 3, 'hidden_size': 0, 'intermediate_size': 0, 'bert.encoder.layer.0.attention.self.query_type': 'linear', 'bert.encoder.layer.0.attention.self.key_type': 'linear', 'bert.encoder.layer.0.attention.self.value_type': 'identity', 'bert.encoder.layer.0.attention.output.dense_type': 'identity', 'bert.encoder.layer.1.attention.self.query_type': 'linear', 'bert.encoder.layer.1.attention.self.key_type': 'identity', 'bert.encoder.layer.1.attention.self.value_type': 'linear', 'bert.encoder.layer.1.attention.output.dense_type': 'linear', 'bert.pooler.dense_type': 'identity'} because of the following error: The value BertForSequenceClassification(
  (bert): BertModel(
    (embeddings): BertEmbeddings(
      (word_embeddings): Embedding(30522, 128, padding_idx=0)
      (position_embeddings): Embedding(512, 128)
      (token_type_embeddings): Embedding(2, 128)
      (LayerNorm): LayerNorm((128,), eps=1e-12, elementwise_affine=True)
      (dropout): Dropout(p=0.1, inplace=False)
    )
    (encoder): BertEncoder(
      (layer): ModuleList(
        (0): BertLayer(
          (attention): BertAttention(
            (self): BertSdpaSelfAttention(
              (query): Linear(in_features=128, out_features=128, bias=True)
              (key): Linear(in_features=128, out_features=128, bias=True)
              (value): Identity()
              (dropout): Dropout(p=0.1, inplace=False)
            )
            (output): BertSelfOutput(
              (dense): Identity()
              (LayerNorm): LayerNorm((128,), eps=1e-12, elementwise_affine=True)
              (dropout): Dropout(p=0.1, inplace=False)
            )
          )
          (intermediate): BertIntermediate(
            (dense): Linear(in_features=128, out_features=512, bias=True)
            (intermediate_act_fn): GELUActivation()
          )
          (output): BertOutput(
            (dense): Linear(in_features=512, out_features=128, bias=True)
            (LayerNorm): LayerNorm((128,), eps=1e-12, elementwise_affine=True)
            (dropout): Dropout(p=0.1, inplace=False)
          )
        )
        (1): BertLayer(
          (attention): BertAttention(
            (self): BertSdpaSelfAttention(
              (query): Linear(in_features=128, out_features=128, bias=True)
              (key): Identity()
              (value): Linear(in_features=128, out_features=128, bias=True)
              (dropout): Dropout(p=0.1, inplace=False)
            )
            (output): BertSelfOutput(
              (dense): Linear(in_features=128, out_features=128, bias=True)
              (LayerNorm): LayerNorm((128,), eps=1e-12, elementwise_affine=True)
              (dropout): Dropout(p=0.1, inplace=False)
            )
          )
          (intermediate): BertIntermediate(
            (dense): Linear(in_features=128, out_features=512, bias=True)
            (intermediate_act_fn): GELUActivation()
          )
          (output): BertOutput(
            (dense): Linear(in_features=512, out_features=128, bias=True)
            (LayerNorm): LayerNorm((128,), eps=1e-12, elementwise_affine=True)
            (dropout): Dropout(p=0.1, inplace=False)
          )
        )
      )
    )
    (pooler): BertPooler(
      (dense): Identity()
      (activation): Tanh()
    )
  )
  (dropout): Dropout(p=0.1, inplace=False)
  (classifier): Linear(in_features=128, out_features=2, bias=True)
) could not be cast to float.
[W 2025-02-02 22:10:23,204] Trial 18 failed with value BertForSequenceClassification(
  (bert): BertModel(
    (embeddings): BertEmbeddings(
      (word_embeddings): Embedding(30522, 128, padding_idx=0)
      (position_embeddings): Embedding(512, 128)
      (token_type_embeddings): Embedding(2, 128)
      (LayerNorm): LayerNorm((128,), eps=1e-12, elementwise_affine=True)
      (dropout): Dropout(p=0.1, inplace=False)
    )
    (encoder): BertEncoder(
      (layer): ModuleList(
        (0): BertLayer(
          (attention): BertAttention(
            (self): BertSdpaSelfAttention(
              (query): Linear(in_features=128, out_features=128, bias=True)
              (key): Linear(in_features=128, out_features=128, bias=True)
              (value): Identity()
              (dropout): Dropout(p=0.1, inplace=False)
            )
            (output): BertSelfOutput(
              (dense): Identity()
              (LayerNorm): LayerNorm((128,), eps=1e-12, elementwise_affine=True)
              (dropout): Dropout(p=0.1, inplace=False)
            )
          )
          (intermediate): BertIntermediate(
            (dense): Linear(in_features=128, out_features=512, bias=True)
            (intermediate_act_fn): GELUActivation()
          )
          (output): BertOutput(
            (dense): Linear(in_features=512, out_features=128, bias=True)
            (LayerNorm): LayerNorm((128,), eps=1e-12, elementwise_affine=True)
            (dropout): Dropout(p=0.1, inplace=False)
          )
        )
        (1): BertLayer(
          (attention): BertAttention(
            (self): BertSdpaSelfAttention(
              (query): Linear(in_features=128, out_features=128, bias=True)
              (key): Identity()
              (value): Linear(in_features=128, out_features=128, bias=True)
              (dropout): Dropout(p=0.1, inplace=False)
            )
            (output): BertSelfOutput(
              (dense): Linear(in_features=128, out_features=128, bias=True)
              (LayerNorm): LayerNorm((128,), eps=1e-12, elementwise_affine=True)
              (dropout): Dropout(p=0.1, inplace=False)
            )
          )
          (intermediate): BertIntermediate(
            (dense): Linear(in_features=128, out_features=512, bias=True)
            (intermediate_act_fn): GELUActivation()
          )
          (output): BertOutput(
            (dense): Linear(in_features=512, out_features=128, bias=True)
            (LayerNorm): LayerNorm((128,), eps=1e-12, elementwise_affine=True)
            (dropout): Dropout(p=0.1, inplace=False)
          )
        )
      )
    )
    (pooler): BertPooler(
      (dense): Identity()
      (activation): Tanh()
    )
  )
  (dropout): Dropout(p=0.1, inplace=False)
  (classifier): Linear(in_features=128, out_features=2, bias=True)
).
[W 2025-02-02 22:10:23,372] Trial 19 failed with parameters: {'num_layers': 0, 'num_heads': 0, 'hidden_size': 1, 'intermediate_size': 3, 'bert.encoder.layer.0.attention.self.query_type': 'identity', 'bert.encoder.layer.0.attention.self.key_type': 'linear', 'bert.encoder.layer.0.attention.self.value_type': 'identity', 'bert.encoder.layer.0.attention.output.dense_type': 'identity', 'bert.encoder.layer.1.attention.self.query_type': 'linear', 'bert.encoder.layer.1.attention.self.key_type': 'identity', 'bert.encoder.layer.1.attention.self.value_type': 'identity', 'bert.encoder.layer.1.attention.output.dense_type': 'identity', 'bert.pooler.dense_type': 'linear'} because of the following error: The value BertForSequenceClassification(
  (bert): BertModel(
    (embeddings): BertEmbeddings(
      (word_embeddings): Embedding(30522, 192, padding_idx=0)
      (position_embeddings): Embedding(512, 192)
      (token_type_embeddings): Embedding(2, 192)
      (LayerNorm): LayerNorm((192,), eps=1e-12, elementwise_affine=True)
      (dropout): Dropout(p=0.1, inplace=False)
    )
    (encoder): BertEncoder(
      (layer): ModuleList(
        (0): BertLayer(
          (attention): BertAttention(
            (self): BertSdpaSelfAttention(
              (query): Identity()
              (key): Linear(in_features=192, out_features=192, bias=True)
              (value): Identity()
              (dropout): Dropout(p=0.1, inplace=False)
            )
            (output): BertSelfOutput(
              (dense): Identity()
              (LayerNorm): LayerNorm((192,), eps=1e-12, elementwise_affine=True)
              (dropout): Dropout(p=0.1, inplace=False)
            )
          )
          (intermediate): BertIntermediate(
            (dense): Linear(in_features=192, out_features=1536, bias=True)
            (intermediate_act_fn): GELUActivation()
          )
          (output): BertOutput(
            (dense): Linear(in_features=1536, out_features=192, bias=True)
            (LayerNorm): LayerNorm((192,), eps=1e-12, elementwise_affine=True)
            (dropout): Dropout(p=0.1, inplace=False)
          )
        )
        (1): BertLayer(
          (attention): BertAttention(
            (self): BertSdpaSelfAttention(
              (query): Linear(in_features=192, out_features=192, bias=True)
              (key): Identity()
              (value): Identity()
              (dropout): Dropout(p=0.1, inplace=False)
            )
            (output): BertSelfOutput(
              (dense): Identity()
              (LayerNorm): LayerNorm((192,), eps=1e-12, elementwise_affine=True)
              (dropout): Dropout(p=0.1, inplace=False)
            )
          )
          (intermediate): BertIntermediate(
            (dense): Linear(in_features=192, out_features=1536, bias=True)
            (intermediate_act_fn): GELUActivation()
          )
          (output): BertOutput(
            (dense): Linear(in_features=1536, out_features=192, bias=True)
            (LayerNorm): LayerNorm((192,), eps=1e-12, elementwise_affine=True)
            (dropout): Dropout(p=0.1, inplace=False)
          )
        )
      )
    )
    (pooler): BertPooler(
      (dense): Linear(in_features=192, out_features=192, bias=True)
      (activation): Tanh()
    )
  )
  (dropout): Dropout(p=0.1, inplace=False)
  (classifier): Linear(in_features=192, out_features=2, bias=True)
) could not be cast to float.
[W 2025-02-02 22:10:23,373] Trial 19 failed with value BertForSequenceClassification(
  (bert): BertModel(
    (embeddings): BertEmbeddings(
      (word_embeddings): Embedding(30522, 192, padding_idx=0)
      (position_embeddings): Embedding(512, 192)
      (token_type_embeddings): Embedding(2, 192)
      (LayerNorm): LayerNorm((192,), eps=1e-12, elementwise_affine=True)
      (dropout): Dropout(p=0.1, inplace=False)
    )
    (encoder): BertEncoder(
      (layer): ModuleList(
        (0): BertLayer(
          (attention): BertAttention(
            (self): BertSdpaSelfAttention(
              (query): Identity()
              (key): Linear(in_features=192, out_features=192, bias=True)
              (value): Identity()
              (dropout): Dropout(p=0.1, inplace=False)
            )
            (output): BertSelfOutput(
              (dense): Identity()
              (LayerNorm): LayerNorm((192,), eps=1e-12, elementwise_affine=True)
              (dropout): Dropout(p=0.1, inplace=False)
            )
          )
          (intermediate): BertIntermediate(
            (dense): Linear(in_features=192, out_features=1536, bias=True)
            (intermediate_act_fn): GELUActivation()
          )
          (output): BertOutput(
            (dense): Linear(in_features=1536, out_features=192, bias=True)
            (LayerNorm): LayerNorm((192,), eps=1e-12, elementwise_affine=True)
            (dropout): Dropout(p=0.1, inplace=False)
          )
        )
        (1): BertLayer(
          (attention): BertAttention(
            (self): BertSdpaSelfAttention(
              (query): Linear(in_features=192, out_features=192, bias=True)
              (key): Identity()
              (value): Identity()
              (dropout): Dropout(p=0.1, inplace=False)
            )
            (output): BertSelfOutput(
              (dense): Identity()
              (LayerNorm): LayerNorm((192,), eps=1e-12, elementwise_affine=True)
              (dropout): Dropout(p=0.1, inplace=False)
            )
          )
          (intermediate): BertIntermediate(
            (dense): Linear(in_features=192, out_features=1536, bias=True)
            (intermediate_act_fn): GELUActivation()
          )
          (output): BertOutput(
            (dense): Linear(in_features=1536, out_features=192, bias=True)
            (LayerNorm): LayerNorm((192,), eps=1e-12, elementwise_affine=True)
            (dropout): Dropout(p=0.1, inplace=False)
          )
        )
      )
    )
    (pooler): BertPooler(
      (dense): Linear(in_features=192, out_features=192, bias=True)
      (activation): Tanh()
    )
  )
  (dropout): Dropout(p=0.1, inplace=False)
  (classifier): Linear(in_features=192, out_features=2, bias=True)
).
[W 2025-02-02 22:10:23,540] Trial 20 failed with parameters: {'num_layers': 1, 'num_heads': 0, 'hidden_size': 1, 'intermediate_size': 1, 'bert.encoder.layer.0.attention.self.query_type': 'linear', 'bert.encoder.layer.0.attention.self.key_type': 'identity', 'bert.encoder.layer.0.attention.self.value_type': 'linear', 'bert.encoder.layer.0.attention.output.dense_type': 'linear', 'bert.encoder.layer.1.attention.self.query_type': 'identity', 'bert.encoder.layer.1.attention.self.key_type': 'identity', 'bert.encoder.layer.1.attention.self.value_type': 'identity', 'bert.encoder.layer.1.attention.output.dense_type': 'identity', 'bert.pooler.dense_type': 'identity'} because of the following error: The value BertForSequenceClassification(
  (bert): BertModel(
    (embeddings): BertEmbeddings(
      (word_embeddings): Embedding(30522, 192, padding_idx=0)
      (position_embeddings): Embedding(512, 192)
      (token_type_embeddings): Embedding(2, 192)
      (LayerNorm): LayerNorm((192,), eps=1e-12, elementwise_affine=True)
      (dropout): Dropout(p=0.1, inplace=False)
    )
    (encoder): BertEncoder(
      (layer): ModuleList(
        (0): BertLayer(
          (attention): BertAttention(
            (self): BertSdpaSelfAttention(
              (query): Linear(in_features=192, out_features=192, bias=True)
              (key): Identity()
              (value): Linear(in_features=192, out_features=192, bias=True)
              (dropout): Dropout(p=0.1, inplace=False)
            )
            (output): BertSelfOutput(
              (dense): Linear(in_features=192, out_features=192, bias=True)
              (LayerNorm): LayerNorm((192,), eps=1e-12, elementwise_affine=True)
              (dropout): Dropout(p=0.1, inplace=False)
            )
          )
          (intermediate): BertIntermediate(
            (dense): Linear(in_features=192, out_features=768, bias=True)
            (intermediate_act_fn): GELUActivation()
          )
          (output): BertOutput(
            (dense): Linear(in_features=768, out_features=192, bias=True)
            (LayerNorm): LayerNorm((192,), eps=1e-12, elementwise_affine=True)
            (dropout): Dropout(p=0.1, inplace=False)
          )
        )
        (1): BertLayer(
          (attention): BertAttention(
            (self): BertSdpaSelfAttention(
              (query): Identity()
              (key): Identity()
              (value): Identity()
              (dropout): Dropout(p=0.1, inplace=False)
            )
            (output): BertSelfOutput(
              (dense): Identity()
              (LayerNorm): LayerNorm((192,), eps=1e-12, elementwise_affine=True)
              (dropout): Dropout(p=0.1, inplace=False)
            )
          )
          (intermediate): BertIntermediate(
            (dense): Linear(in_features=192, out_features=768, bias=True)
            (intermediate_act_fn): GELUActivation()
          )
          (output): BertOutput(
            (dense): Linear(in_features=768, out_features=192, bias=True)
            (LayerNorm): LayerNorm((192,), eps=1e-12, elementwise_affine=True)
            (dropout): Dropout(p=0.1, inplace=False)
          )
        )
      )
    )
    (pooler): BertPooler(
      (dense): Identity()
      (activation): Tanh()
    )
  )
  (dropout): Dropout(p=0.1, inplace=False)
  (classifier): Linear(in_features=192, out_features=2, bias=True)
) could not be cast to float.
[W 2025-02-02 22:10:23,540] Trial 20 failed with value BertForSequenceClassification(
  (bert): BertModel(
    (embeddings): BertEmbeddings(
      (word_embeddings): Embedding(30522, 192, padding_idx=0)
      (position_embeddings): Embedding(512, 192)
      (token_type_embeddings): Embedding(2, 192)
      (LayerNorm): LayerNorm((192,), eps=1e-12, elementwise_affine=True)
      (dropout): Dropout(p=0.1, inplace=False)
    )
    (encoder): BertEncoder(
      (layer): ModuleList(
        (0): BertLayer(
          (attention): BertAttention(
            (self): BertSdpaSelfAttention(
              (query): Linear(in_features=192, out_features=192, bias=True)
              (key): Identity()
              (value): Linear(in_features=192, out_features=192, bias=True)
              (dropout): Dropout(p=0.1, inplace=False)
            )
            (output): BertSelfOutput(
              (dense): Linear(in_features=192, out_features=192, bias=True)
              (LayerNorm): LayerNorm((192,), eps=1e-12, elementwise_affine=True)
              (dropout): Dropout(p=0.1, inplace=False)
            )
          )
          (intermediate): BertIntermediate(
            (dense): Linear(in_features=192, out_features=768, bias=True)
            (intermediate_act_fn): GELUActivation()
          )
          (output): BertOutput(
            (dense): Linear(in_features=768, out_features=192, bias=True)
            (LayerNorm): LayerNorm((192,), eps=1e-12, elementwise_affine=True)
            (dropout): Dropout(p=0.1, inplace=False)
          )
        )
        (1): BertLayer(
          (attention): BertAttention(
            (self): BertSdpaSelfAttention(
              (query): Identity()
              (key): Identity()
              (value): Identity()
              (dropout): Dropout(p=0.1, inplace=False)
            )
            (output): BertSelfOutput(
              (dense): Identity()
              (LayerNorm): LayerNorm((192,), eps=1e-12, elementwise_affine=True)
              (dropout): Dropout(p=0.1, inplace=False)
            )
          )
          (intermediate): BertIntermediate(
            (dense): Linear(in_features=192, out_features=768, bias=True)
            (intermediate_act_fn): GELUActivation()
          )
          (output): BertOutput(
            (dense): Linear(in_features=768, out_features=192, bias=True)
            (LayerNorm): LayerNorm((192,), eps=1e-12, elementwise_affine=True)
            (dropout): Dropout(p=0.1, inplace=False)
          )
        )
      )
    )
    (pooler): BertPooler(
      (dense): Identity()
      (activation): Tanh()
    )
  )
  (dropout): Dropout(p=0.1, inplace=False)
  (classifier): Linear(in_features=192, out_features=2, bias=True)
).
[W 2025-02-02 22:10:23,721] Trial 21 failed with parameters: {'num_layers': 1, 'num_heads': 2, 'hidden_size': 0, 'intermediate_size': 4, 'bert.encoder.layer.0.attention.self.query_type': 'linear', 'bert.encoder.layer.0.attention.self.key_type': 'identity', 'bert.encoder.layer.0.attention.self.value_type': 'linear', 'bert.encoder.layer.0.attention.output.dense_type': 'linear', 'bert.encoder.layer.1.attention.self.query_type': 'linear', 'bert.encoder.layer.1.attention.self.key_type': 'identity', 'bert.encoder.layer.1.attention.self.value_type': 'linear', 'bert.encoder.layer.1.attention.output.dense_type': 'identity', 'bert.pooler.dense_type': 'identity'} because of the following error: The value BertForSequenceClassification(
  (bert): BertModel(
    (embeddings): BertEmbeddings(
      (word_embeddings): Embedding(30522, 128, padding_idx=0)
      (position_embeddings): Embedding(512, 128)
      (token_type_embeddings): Embedding(2, 128)
      (LayerNorm): LayerNorm((128,), eps=1e-12, elementwise_affine=True)
      (dropout): Dropout(p=0.1, inplace=False)
    )
    (encoder): BertEncoder(
      (layer): ModuleList(
        (0): BertLayer(
          (attention): BertAttention(
            (self): BertSdpaSelfAttention(
              (query): Linear(in_features=128, out_features=128, bias=True)
              (key): Identity()
              (value): Linear(in_features=128, out_features=128, bias=True)
              (dropout): Dropout(p=0.1, inplace=False)
            )
            (output): BertSelfOutput(
              (dense): Linear(in_features=128, out_features=128, bias=True)
              (LayerNorm): LayerNorm((128,), eps=1e-12, elementwise_affine=True)
              (dropout): Dropout(p=0.1, inplace=False)
            )
          )
          (intermediate): BertIntermediate(
            (dense): Linear(in_features=128, out_features=2048, bias=True)
            (intermediate_act_fn): GELUActivation()
          )
          (output): BertOutput(
            (dense): Linear(in_features=2048, out_features=128, bias=True)
            (LayerNorm): LayerNorm((128,), eps=1e-12, elementwise_affine=True)
            (dropout): Dropout(p=0.1, inplace=False)
          )
        )
        (1): BertLayer(
          (attention): BertAttention(
            (self): BertSdpaSelfAttention(
              (query): Linear(in_features=128, out_features=128, bias=True)
              (key): Identity()
              (value): Linear(in_features=128, out_features=128, bias=True)
              (dropout): Dropout(p=0.1, inplace=False)
            )
            (output): BertSelfOutput(
              (dense): Identity()
              (LayerNorm): LayerNorm((128,), eps=1e-12, elementwise_affine=True)
              (dropout): Dropout(p=0.1, inplace=False)
            )
          )
          (intermediate): BertIntermediate(
            (dense): Linear(in_features=128, out_features=2048, bias=True)
            (intermediate_act_fn): GELUActivation()
          )
          (output): BertOutput(
            (dense): Linear(in_features=2048, out_features=128, bias=True)
            (LayerNorm): LayerNorm((128,), eps=1e-12, elementwise_affine=True)
            (dropout): Dropout(p=0.1, inplace=False)
          )
        )
      )
    )
    (pooler): BertPooler(
      (dense): Identity()
      (activation): Tanh()
    )
  )
  (dropout): Dropout(p=0.1, inplace=False)
  (classifier): Linear(in_features=128, out_features=2, bias=True)
) could not be cast to float.
[W 2025-02-02 22:10:23,721] Trial 21 failed with value BertForSequenceClassification(
  (bert): BertModel(
    (embeddings): BertEmbeddings(
      (word_embeddings): Embedding(30522, 128, padding_idx=0)
      (position_embeddings): Embedding(512, 128)
      (token_type_embeddings): Embedding(2, 128)
      (LayerNorm): LayerNorm((128,), eps=1e-12, elementwise_affine=True)
      (dropout): Dropout(p=0.1, inplace=False)
    )
    (encoder): BertEncoder(
      (layer): ModuleList(
        (0): BertLayer(
          (attention): BertAttention(
            (self): BertSdpaSelfAttention(
              (query): Linear(in_features=128, out_features=128, bias=True)
              (key): Identity()
              (value): Linear(in_features=128, out_features=128, bias=True)
              (dropout): Dropout(p=0.1, inplace=False)
            )
            (output): BertSelfOutput(
              (dense): Linear(in_features=128, out_features=128, bias=True)
              (LayerNorm): LayerNorm((128,), eps=1e-12, elementwise_affine=True)
              (dropout): Dropout(p=0.1, inplace=False)
            )
          )
          (intermediate): BertIntermediate(
            (dense): Linear(in_features=128, out_features=2048, bias=True)
            (intermediate_act_fn): GELUActivation()
          )
          (output): BertOutput(
            (dense): Linear(in_features=2048, out_features=128, bias=True)
            (LayerNorm): LayerNorm((128,), eps=1e-12, elementwise_affine=True)
            (dropout): Dropout(p=0.1, inplace=False)
          )
        )
        (1): BertLayer(
          (attention): BertAttention(
            (self): BertSdpaSelfAttention(
              (query): Linear(in_features=128, out_features=128, bias=True)
              (key): Identity()
              (value): Linear(in_features=128, out_features=128, bias=True)
              (dropout): Dropout(p=0.1, inplace=False)
            )
            (output): BertSelfOutput(
              (dense): Identity()
              (LayerNorm): LayerNorm((128,), eps=1e-12, elementwise_affine=True)
              (dropout): Dropout(p=0.1, inplace=False)
            )
          )
          (intermediate): BertIntermediate(
            (dense): Linear(in_features=128, out_features=2048, bias=True)
            (intermediate_act_fn): GELUActivation()
          )
          (output): BertOutput(
            (dense): Linear(in_features=2048, out_features=128, bias=True)
            (LayerNorm): LayerNorm((128,), eps=1e-12, elementwise_affine=True)
            (dropout): Dropout(p=0.1, inplace=False)
          )
        )
      )
    )
    (pooler): BertPooler(
      (dense): Identity()
      (activation): Tanh()
    )
  )
  (dropout): Dropout(p=0.1, inplace=False)
  (classifier): Linear(in_features=128, out_features=2, bias=True)
).
[W 2025-02-02 22:10:23,912] Trial 22 failed with parameters: {'num_layers': 1, 'num_heads': 3, 'hidden_size': 2, 'intermediate_size': 2, 'bert.encoder.layer.0.attention.self.query_type': 'identity', 'bert.encoder.layer.0.attention.self.key_type': 'linear', 'bert.encoder.layer.0.attention.self.value_type': 'linear', 'bert.encoder.layer.0.attention.output.dense_type': 'linear', 'bert.encoder.layer.1.attention.self.query_type': 'linear', 'bert.encoder.layer.1.attention.self.key_type': 'linear', 'bert.encoder.layer.1.attention.self.value_type': 'identity', 'bert.encoder.layer.1.attention.output.dense_type': 'linear', 'bert.pooler.dense_type': 'identity'} because of the following error: The value BertForSequenceClassification(
  (bert): BertModel(
    (embeddings): BertEmbeddings(
      (word_embeddings): Embedding(30522, 256, padding_idx=0)
      (position_embeddings): Embedding(512, 256)
      (token_type_embeddings): Embedding(2, 256)
      (LayerNorm): LayerNorm((256,), eps=1e-12, elementwise_affine=True)
      (dropout): Dropout(p=0.1, inplace=False)
    )
    (encoder): BertEncoder(
      (layer): ModuleList(
        (0): BertLayer(
          (attention): BertAttention(
            (self): BertSdpaSelfAttention(
              (query): Identity()
              (key): Linear(in_features=256, out_features=256, bias=True)
              (value): Linear(in_features=256, out_features=256, bias=True)
              (dropout): Dropout(p=0.1, inplace=False)
            )
            (output): BertSelfOutput(
              (dense): Linear(in_features=256, out_features=256, bias=True)
              (LayerNorm): LayerNorm((256,), eps=1e-12, elementwise_affine=True)
              (dropout): Dropout(p=0.1, inplace=False)
            )
          )
          (intermediate): BertIntermediate(
            (dense): Linear(in_features=256, out_features=1024, bias=True)
            (intermediate_act_fn): GELUActivation()
          )
          (output): BertOutput(
            (dense): Linear(in_features=1024, out_features=256, bias=True)
            (LayerNorm): LayerNorm((256,), eps=1e-12, elementwise_affine=True)
            (dropout): Dropout(p=0.1, inplace=False)
          )
        )
        (1): BertLayer(
          (attention): BertAttention(
            (self): BertSdpaSelfAttention(
              (query): Linear(in_features=256, out_features=256, bias=True)
              (key): Linear(in_features=256, out_features=256, bias=True)
              (value): Identity()
              (dropout): Dropout(p=0.1, inplace=False)
            )
            (output): BertSelfOutput(
              (dense): Linear(in_features=256, out_features=256, bias=True)
              (LayerNorm): LayerNorm((256,), eps=1e-12, elementwise_affine=True)
              (dropout): Dropout(p=0.1, inplace=False)
            )
          )
          (intermediate): BertIntermediate(
            (dense): Linear(in_features=256, out_features=1024, bias=True)
            (intermediate_act_fn): GELUActivation()
          )
          (output): BertOutput(
            (dense): Linear(in_features=1024, out_features=256, bias=True)
            (LayerNorm): LayerNorm((256,), eps=1e-12, elementwise_affine=True)
            (dropout): Dropout(p=0.1, inplace=False)
          )
        )
      )
    )
    (pooler): BertPooler(
      (dense): Identity()
      (activation): Tanh()
    )
  )
  (dropout): Dropout(p=0.1, inplace=False)
  (classifier): Linear(in_features=256, out_features=2, bias=True)
) could not be cast to float.
[W 2025-02-02 22:10:23,912] Trial 22 failed with value BertForSequenceClassification(
  (bert): BertModel(
    (embeddings): BertEmbeddings(
      (word_embeddings): Embedding(30522, 256, padding_idx=0)
      (position_embeddings): Embedding(512, 256)
      (token_type_embeddings): Embedding(2, 256)
      (LayerNorm): LayerNorm((256,), eps=1e-12, elementwise_affine=True)
      (dropout): Dropout(p=0.1, inplace=False)
    )
    (encoder): BertEncoder(
      (layer): ModuleList(
        (0): BertLayer(
          (attention): BertAttention(
            (self): BertSdpaSelfAttention(
              (query): Identity()
              (key): Linear(in_features=256, out_features=256, bias=True)
              (value): Linear(in_features=256, out_features=256, bias=True)
              (dropout): Dropout(p=0.1, inplace=False)
            )
            (output): BertSelfOutput(
              (dense): Linear(in_features=256, out_features=256, bias=True)
              (LayerNorm): LayerNorm((256,), eps=1e-12, elementwise_affine=True)
              (dropout): Dropout(p=0.1, inplace=False)
            )
          )
          (intermediate): BertIntermediate(
            (dense): Linear(in_features=256, out_features=1024, bias=True)
            (intermediate_act_fn): GELUActivation()
          )
          (output): BertOutput(
            (dense): Linear(in_features=1024, out_features=256, bias=True)
            (LayerNorm): LayerNorm((256,), eps=1e-12, elementwise_affine=True)
            (dropout): Dropout(p=0.1, inplace=False)
          )
        )
        (1): BertLayer(
          (attention): BertAttention(
            (self): BertSdpaSelfAttention(
              (query): Linear(in_features=256, out_features=256, bias=True)
              (key): Linear(in_features=256, out_features=256, bias=True)
              (value): Identity()
              (dropout): Dropout(p=0.1, inplace=False)
            )
            (output): BertSelfOutput(
              (dense): Linear(in_features=256, out_features=256, bias=True)
              (LayerNorm): LayerNorm((256,), eps=1e-12, elementwise_affine=True)
              (dropout): Dropout(p=0.1, inplace=False)
            )
          )
          (intermediate): BertIntermediate(
            (dense): Linear(in_features=256, out_features=1024, bias=True)
            (intermediate_act_fn): GELUActivation()
          )
          (output): BertOutput(
            (dense): Linear(in_features=1024, out_features=256, bias=True)
            (LayerNorm): LayerNorm((256,), eps=1e-12, elementwise_affine=True)
            (dropout): Dropout(p=0.1, inplace=False)
          )
        )
      )
    )
    (pooler): BertPooler(
      (dense): Identity()
      (activation): Tanh()
    )
  )
  (dropout): Dropout(p=0.1, inplace=False)
  (classifier): Linear(in_features=256, out_features=2, bias=True)
).
[W 2025-02-02 22:10:24,206] Trial 23 failed with parameters: {'num_layers': 0, 'num_heads': 0, 'hidden_size': 3, 'intermediate_size': 3, 'bert.encoder.layer.0.attention.self.query_type': 'linear', 'bert.encoder.layer.0.attention.self.key_type': 'identity', 'bert.encoder.layer.0.attention.self.value_type': 'identity', 'bert.encoder.layer.0.attention.output.dense_type': 'linear', 'bert.encoder.layer.1.attention.self.query_type': 'linear', 'bert.encoder.layer.1.attention.self.key_type': 'identity', 'bert.encoder.layer.1.attention.self.value_type': 'linear', 'bert.encoder.layer.1.attention.output.dense_type': 'identity', 'bert.pooler.dense_type': 'linear'} because of the following error: The value BertForSequenceClassification(
  (bert): BertModel(
    (embeddings): BertEmbeddings(
      (word_embeddings): Embedding(30522, 384, padding_idx=0)
      (position_embeddings): Embedding(512, 384)
      (token_type_embeddings): Embedding(2, 384)
      (LayerNorm): LayerNorm((384,), eps=1e-12, elementwise_affine=True)
      (dropout): Dropout(p=0.1, inplace=False)
    )
    (encoder): BertEncoder(
      (layer): ModuleList(
        (0): BertLayer(
          (attention): BertAttention(
            (self): BertSdpaSelfAttention(
              (query): Linear(in_features=384, out_features=384, bias=True)
              (key): Identity()
              (value): Identity()
              (dropout): Dropout(p=0.1, inplace=False)
            )
            (output): BertSelfOutput(
              (dense): Linear(in_features=384, out_features=384, bias=True)
              (LayerNorm): LayerNorm((384,), eps=1e-12, elementwise_affine=True)
              (dropout): Dropout(p=0.1, inplace=False)
            )
          )
          (intermediate): BertIntermediate(
            (dense): Linear(in_features=384, out_features=1536, bias=True)
            (intermediate_act_fn): GELUActivation()
          )
          (output): BertOutput(
            (dense): Linear(in_features=1536, out_features=384, bias=True)
            (LayerNorm): LayerNorm((384,), eps=1e-12, elementwise_affine=True)
            (dropout): Dropout(p=0.1, inplace=False)
          )
        )
        (1): BertLayer(
          (attention): BertAttention(
            (self): BertSdpaSelfAttention(
              (query): Linear(in_features=384, out_features=384, bias=True)
              (key): Identity()
              (value): Linear(in_features=384, out_features=384, bias=True)
              (dropout): Dropout(p=0.1, inplace=False)
            )
            (output): BertSelfOutput(
              (dense): Identity()
              (LayerNorm): LayerNorm((384,), eps=1e-12, elementwise_affine=True)
              (dropout): Dropout(p=0.1, inplace=False)
            )
          )
          (intermediate): BertIntermediate(
            (dense): Linear(in_features=384, out_features=1536, bias=True)
            (intermediate_act_fn): GELUActivation()
          )
          (output): BertOutput(
            (dense): Linear(in_features=1536, out_features=384, bias=True)
            (LayerNorm): LayerNorm((384,), eps=1e-12, elementwise_affine=True)
            (dropout): Dropout(p=0.1, inplace=False)
          )
        )
      )
    )
    (pooler): BertPooler(
      (dense): Linear(in_features=384, out_features=384, bias=True)
      (activation): Tanh()
    )
  )
  (dropout): Dropout(p=0.1, inplace=False)
  (classifier): Linear(in_features=384, out_features=2, bias=True)
) could not be cast to float.
[W 2025-02-02 22:10:24,206] Trial 23 failed with value BertForSequenceClassification(
  (bert): BertModel(
    (embeddings): BertEmbeddings(
      (word_embeddings): Embedding(30522, 384, padding_idx=0)
      (position_embeddings): Embedding(512, 384)
      (token_type_embeddings): Embedding(2, 384)
      (LayerNorm): LayerNorm((384,), eps=1e-12, elementwise_affine=True)
      (dropout): Dropout(p=0.1, inplace=False)
    )
    (encoder): BertEncoder(
      (layer): ModuleList(
        (0): BertLayer(
          (attention): BertAttention(
            (self): BertSdpaSelfAttention(
              (query): Linear(in_features=384, out_features=384, bias=True)
              (key): Identity()
              (value): Identity()
              (dropout): Dropout(p=0.1, inplace=False)
            )
            (output): BertSelfOutput(
              (dense): Linear(in_features=384, out_features=384, bias=True)
              (LayerNorm): LayerNorm((384,), eps=1e-12, elementwise_affine=True)
              (dropout): Dropout(p=0.1, inplace=False)
            )
          )
          (intermediate): BertIntermediate(
            (dense): Linear(in_features=384, out_features=1536, bias=True)
            (intermediate_act_fn): GELUActivation()
          )
          (output): BertOutput(
            (dense): Linear(in_features=1536, out_features=384, bias=True)
            (LayerNorm): LayerNorm((384,), eps=1e-12, elementwise_affine=True)
            (dropout): Dropout(p=0.1, inplace=False)
          )
        )
        (1): BertLayer(
          (attention): BertAttention(
            (self): BertSdpaSelfAttention(
              (query): Linear(in_features=384, out_features=384, bias=True)
              (key): Identity()
              (value): Linear(in_features=384, out_features=384, bias=True)
              (dropout): Dropout(p=0.1, inplace=False)
            )
            (output): BertSelfOutput(
              (dense): Identity()
              (LayerNorm): LayerNorm((384,), eps=1e-12, elementwise_affine=True)
              (dropout): Dropout(p=0.1, inplace=False)
            )
          )
          (intermediate): BertIntermediate(
            (dense): Linear(in_features=384, out_features=1536, bias=True)
            (intermediate_act_fn): GELUActivation()
          )
          (output): BertOutput(
            (dense): Linear(in_features=1536, out_features=384, bias=True)
            (LayerNorm): LayerNorm((384,), eps=1e-12, elementwise_affine=True)
            (dropout): Dropout(p=0.1, inplace=False)
          )
        )
      )
    )
    (pooler): BertPooler(
      (dense): Linear(in_features=384, out_features=384, bias=True)
      (activation): Tanh()
    )
  )
  (dropout): Dropout(p=0.1, inplace=False)
  (classifier): Linear(in_features=384, out_features=2, bias=True)
).
[W 2025-02-02 22:10:24,415] Trial 24 failed with parameters: {'num_layers': 0, 'num_heads': 1, 'hidden_size': 2, 'intermediate_size': 1, 'bert.encoder.layer.0.attention.self.query_type': 'linear', 'bert.encoder.layer.0.attention.self.key_type': 'linear', 'bert.encoder.layer.0.attention.self.value_type': 'identity', 'bert.encoder.layer.0.attention.output.dense_type': 'identity', 'bert.encoder.layer.1.attention.self.query_type': 'linear', 'bert.encoder.layer.1.attention.self.key_type': 'identity', 'bert.encoder.layer.1.attention.self.value_type': 'identity', 'bert.encoder.layer.1.attention.output.dense_type': 'linear', 'bert.pooler.dense_type': 'linear'} because of the following error: The value BertForSequenceClassification(
  (bert): BertModel(
    (embeddings): BertEmbeddings(
      (word_embeddings): Embedding(30522, 256, padding_idx=0)
      (position_embeddings): Embedding(512, 256)
      (token_type_embeddings): Embedding(2, 256)
      (LayerNorm): LayerNorm((256,), eps=1e-12, elementwise_affine=True)
      (dropout): Dropout(p=0.1, inplace=False)
    )
    (encoder): BertEncoder(
      (layer): ModuleList(
        (0): BertLayer(
          (attention): BertAttention(
            (self): BertSdpaSelfAttention(
              (query): Linear(in_features=256, out_features=256, bias=True)
              (key): Linear(in_features=256, out_features=256, bias=True)
              (value): Identity()
              (dropout): Dropout(p=0.1, inplace=False)
            )
            (output): BertSelfOutput(
              (dense): Identity()
              (LayerNorm): LayerNorm((256,), eps=1e-12, elementwise_affine=True)
              (dropout): Dropout(p=0.1, inplace=False)
            )
          )
          (intermediate): BertIntermediate(
            (dense): Linear(in_features=256, out_features=768, bias=True)
            (intermediate_act_fn): GELUActivation()
          )
          (output): BertOutput(
            (dense): Linear(in_features=768, out_features=256, bias=True)
            (LayerNorm): LayerNorm((256,), eps=1e-12, elementwise_affine=True)
            (dropout): Dropout(p=0.1, inplace=False)
          )
        )
        (1): BertLayer(
          (attention): BertAttention(
            (self): BertSdpaSelfAttention(
              (query): Linear(in_features=256, out_features=256, bias=True)
              (key): Identity()
              (value): Identity()
              (dropout): Dropout(p=0.1, inplace=False)
            )
            (output): BertSelfOutput(
              (dense): Linear(in_features=256, out_features=256, bias=True)
              (LayerNorm): LayerNorm((256,), eps=1e-12, elementwise_affine=True)
              (dropout): Dropout(p=0.1, inplace=False)
            )
          )
          (intermediate): BertIntermediate(
            (dense): Linear(in_features=256, out_features=768, bias=True)
            (intermediate_act_fn): GELUActivation()
          )
          (output): BertOutput(
            (dense): Linear(in_features=768, out_features=256, bias=True)
            (LayerNorm): LayerNorm((256,), eps=1e-12, elementwise_affine=True)
            (dropout): Dropout(p=0.1, inplace=False)
          )
        )
      )
    )
    (pooler): BertPooler(
      (dense): Linear(in_features=256, out_features=256, bias=True)
      (activation): Tanh()
    )
  )
  (dropout): Dropout(p=0.1, inplace=False)
  (classifier): Linear(in_features=256, out_features=2, bias=True)
) could not be cast to float.
[W 2025-02-02 22:10:24,416] Trial 24 failed with value BertForSequenceClassification(
  (bert): BertModel(
    (embeddings): BertEmbeddings(
      (word_embeddings): Embedding(30522, 256, padding_idx=0)
      (position_embeddings): Embedding(512, 256)
      (token_type_embeddings): Embedding(2, 256)
      (LayerNorm): LayerNorm((256,), eps=1e-12, elementwise_affine=True)
…
      (position_embeddings): Embedding(512, 192)
      (token_type_embeddings): Embedding(2, 192)
      (LayerNorm): LayerNorm((192,), eps=1e-12, elementwise_affine=True)
      (dropout): Dropout(p=0.1, inplace=False)
    )
    (encoder): BertEncoder(
      (layer): ModuleList(
        (0): BertLayer(
          (attention): BertAttention(
            (self): BertSdpaSelfAttention(
              (query): Identity()
              (key): Identity()
              (value): Identity()
              (dropout): Dropout(p=0.1, inplace=False)
            )
            (output): BertSelfOutput(
              (dense): Linear(in_features=192, out_features=192, bias=True)
              (LayerNorm): LayerNorm((192,), eps=1e-12, elementwise_affine=True)
              (dropout): Dropout(p=0.1, inplace=False)
            )
          )
          (intermediate): BertIntermediate(
            (dense): Linear(in_features=192, out_features=2048, bias=True)
            (intermediate_act_fn): GELUActivation()
          )
          (output): BertOutput(
            (dense): Linear(in_features=2048, out_features=192, bias=True)
            (LayerNorm): LayerNorm((192,), eps=1e-12, elementwise_affine=True)
            (dropout): Dropout(p=0.1, inplace=False)
          )
        )
        (1): BertLayer(
          (attention): BertAttention(
            (self): BertSdpaSelfAttention(
              (query): Linear(in_features=192, out_features=192, bias=True)
              (key): Linear(in_features=192, out_features=192, bias=True)
              (value): Identity()
              (dropout): Dropout(p=0.1, inplace=False)
            )
            (output): BertSelfOutput(
              (dense): Identity()
              (LayerNorm): LayerNorm((192,), eps=1e-12, elementwise_affine=True)
              (dropout): Dropout(p=0.1, inplace=False)
            )
          )
          (intermediate): BertIntermediate(
            (dense): Linear(in_features=192, out_features=2048, bias=True)
            (intermediate_act_fn): GELUActivation()
          )
          (output): BertOutput(
            (dense): Linear(in_features=2048, out_features=192, bias=True)
            (LayerNorm): LayerNorm((192,), eps=1e-12, elementwise_affine=True)
            (dropout): Dropout(p=0.1, inplace=False)
          )
        )
      )
    )
    (pooler): BertPooler(
      (dense): Linear(in_features=192, out_features=192, bias=True)
      (activation): Tanh()
    )
  )
  (dropout): Dropout(p=0.1, inplace=False)
  (classifier): Linear(in_features=192, out_features=2, bias=True)
) could not be cast to float.
[W 2025-02-02 22:10:39,924] Trial 92 failed with value BertForSequenceClassification(
  (bert): BertModel(
    (embeddings): BertEmbeddings(
      (word_embeddings): Embedding(30522, 192, padding_idx=0)
      (position_embeddings): Embedding(512, 192)
      (token_type_embeddings): Embedding(2, 192)
      (LayerNorm): LayerNorm((192,), eps=1e-12, elementwise_affine=True)
      (dropout): Dropout(p=0.1, inplace=False)
    )
    (encoder): BertEncoder(
      (layer): ModuleList(
        (0): BertLayer(
          (attention): BertAttention(
            (self): BertSdpaSelfAttention(
              (query): Identity()
              (key): Identity()
              (value): Identity()
              (dropout): Dropout(p=0.1, inplace=False)
            )
            (output): BertSelfOutput(
              (dense): Linear(in_features=192, out_features=192, bias=True)
              (LayerNorm): LayerNorm((192,), eps=1e-12, elementwise_affine=True)
              (dropout): Dropout(p=0.1, inplace=False)
            )
          )
          (intermediate): BertIntermediate(
            (dense): Linear(in_features=192, out_features=2048, bias=True)
            (intermediate_act_fn): GELUActivation()
          )
          (output): BertOutput(
            (dense): Linear(in_features=2048, out_features=192, bias=True)
            (LayerNorm): LayerNorm((192,), eps=1e-12, elementwise_affine=True)
            (dropout): Dropout(p=0.1, inplace=False)
          )
        )
        (1): BertLayer(
          (attention): BertAttention(
            (self): BertSdpaSelfAttention(
              (query): Linear(in_features=192, out_features=192, bias=True)
              (key): Linear(in_features=192, out_features=192, bias=True)
              (value): Identity()
              (dropout): Dropout(p=0.1, inplace=False)
            )
            (output): BertSelfOutput(
              (dense): Identity()
              (LayerNorm): LayerNorm((192,), eps=1e-12, elementwise_affine=True)
              (dropout): Dropout(p=0.1, inplace=False)
            )
          )
          (intermediate): BertIntermediate(
            (dense): Linear(in_features=192, out_features=2048, bias=True)
            (intermediate_act_fn): GELUActivation()
          )
          (output): BertOutput(
            (dense): Linear(in_features=2048, out_features=192, bias=True)
            (LayerNorm): LayerNorm((192,), eps=1e-12, elementwise_affine=True)
            (dropout): Dropout(p=0.1, inplace=False)
          )
        )
      )
    )
    (pooler): BertPooler(
      (dense): Linear(in_features=192, out_features=192, bias=True)
      (activation): Tanh()
    )
  )
  (dropout): Dropout(p=0.1, inplace=False)
  (classifier): Linear(in_features=192, out_features=2, bias=True)
).
[W 2025-02-02 22:10:40,064] Trial 93 failed with parameters: {'num_layers': 1, 'num_heads': 1, 'hidden_size': 0, 'intermediate_size': 0, 'bert.encoder.layer.0.attention.self.query_type': 'linear', 'bert.encoder.layer.0.attention.self.key_type': 'identity', 'bert.encoder.layer.0.attention.self.value_type': 'linear', 'bert.encoder.layer.0.attention.output.dense_type': 'linear', 'bert.encoder.layer.1.attention.self.query_type': 'identity', 'bert.encoder.layer.1.attention.self.key_type': 'identity', 'bert.encoder.layer.1.attention.self.value_type': 'identity', 'bert.encoder.layer.1.attention.output.dense_type': 'linear', 'bert.pooler.dense_type': 'linear'} because of the following error: The value BertForSequenceClassification(
  (bert): BertModel(
    (embeddings): BertEmbeddings(
      (word_embeddings): Embedding(30522, 128, padding_idx=0)
      (position_embeddings): Embedding(512, 128)
      (token_type_embeddings): Embedding(2, 128)
      (LayerNorm): LayerNorm((128,), eps=1e-12, elementwise_affine=True)
      (dropout): Dropout(p=0.1, inplace=False)
    )
    (encoder): BertEncoder(
      (layer): ModuleList(
        (0): BertLayer(
          (attention): BertAttention(
            (self): BertSdpaSelfAttention(
              (query): Linear(in_features=128, out_features=128, bias=True)
              (key): Identity()
              (value): Linear(in_features=128, out_features=128, bias=True)
              (dropout): Dropout(p=0.1, inplace=False)
            )
            (output): BertSelfOutput(
              (dense): Linear(in_features=128, out_features=128, bias=True)
              (LayerNorm): LayerNorm((128,), eps=1e-12, elementwise_affine=True)
              (dropout): Dropout(p=0.1, inplace=False)
            )
          )
          (intermediate): BertIntermediate(
            (dense): Linear(in_features=128, out_features=512, bias=True)
            (intermediate_act_fn): GELUActivation()
          )
          (output): BertOutput(
            (dense): Linear(in_features=512, out_features=128, bias=True)
            (LayerNorm): LayerNorm((128,), eps=1e-12, elementwise_affine=True)
            (dropout): Dropout(p=0.1, inplace=False)
          )
        )
        (1): BertLayer(
          (attention): BertAttention(
            (self): BertSdpaSelfAttention(
              (query): Identity()
              (key): Identity()
              (value): Identity()
              (dropout): Dropout(p=0.1, inplace=False)
            )
            (output): BertSelfOutput(
              (dense): Linear(in_features=128, out_features=128, bias=True)
              (LayerNorm): LayerNorm((128,), eps=1e-12, elementwise_affine=True)
              (dropout): Dropout(p=0.1, inplace=False)
            )
          )
          (intermediate): BertIntermediate(
            (dense): Linear(in_features=128, out_features=512, bias=True)
            (intermediate_act_fn): GELUActivation()
          )
          (output): BertOutput(
            (dense): Linear(in_features=512, out_features=128, bias=True)
            (LayerNorm): LayerNorm((128,), eps=1e-12, elementwise_affine=True)
            (dropout): Dropout(p=0.1, inplace=False)
          )
        )
      )
    )
    (pooler): BertPooler(
      (dense): Linear(in_features=128, out_features=128, bias=True)
      (activation): Tanh()
    )
  )
  (dropout): Dropout(p=0.1, inplace=False)
  (classifier): Linear(in_features=128, out_features=2, bias=True)
) could not be cast to float.
[W 2025-02-02 22:10:40,065] Trial 93 failed with value BertForSequenceClassification(
  (bert): BertModel(
    (embeddings): BertEmbeddings(
      (word_embeddings): Embedding(30522, 128, padding_idx=0)
      (position_embeddings): Embedding(512, 128)
      (token_type_embeddings): Embedding(2, 128)
      (LayerNorm): LayerNorm((128,), eps=1e-12, elementwise_affine=True)
      (dropout): Dropout(p=0.1, inplace=False)
    )
    (encoder): BertEncoder(
      (layer): ModuleList(
        (0): BertLayer(
          (attention): BertAttention(
            (self): BertSdpaSelfAttention(
              (query): Linear(in_features=128, out_features=128, bias=True)
              (key): Identity()
              (value): Linear(in_features=128, out_features=128, bias=True)
              (dropout): Dropout(p=0.1, inplace=False)
            )
            (output): BertSelfOutput(
              (dense): Linear(in_features=128, out_features=128, bias=True)
              (LayerNorm): LayerNorm((128,), eps=1e-12, elementwise_affine=True)
              (dropout): Dropout(p=0.1, inplace=False)
            )
          )
          (intermediate): BertIntermediate(
            (dense): Linear(in_features=128, out_features=512, bias=True)
            (intermediate_act_fn): GELUActivation()
          )
          (output): BertOutput(
            (dense): Linear(in_features=512, out_features=128, bias=True)
            (LayerNorm): LayerNorm((128,), eps=1e-12, elementwise_affine=True)
            (dropout): Dropout(p=0.1, inplace=False)
          )
        )
        (1): BertLayer(
          (attention): BertAttention(
            (self): BertSdpaSelfAttention(
              (query): Identity()
              (key): Identity()
              (value): Identity()
              (dropout): Dropout(p=0.1, inplace=False)
            )
            (output): BertSelfOutput(
              (dense): Linear(in_features=128, out_features=128, bias=True)
              (LayerNorm): LayerNorm((128,), eps=1e-12, elementwise_affine=True)
              (dropout): Dropout(p=0.1, inplace=False)
            )
          )
          (intermediate): BertIntermediate(
            (dense): Linear(in_features=128, out_features=512, bias=True)
            (intermediate_act_fn): GELUActivation()
          )
          (output): BertOutput(
            (dense): Linear(in_features=512, out_features=128, bias=True)
            (LayerNorm): LayerNorm((128,), eps=1e-12, elementwise_affine=True)
            (dropout): Dropout(p=0.1, inplace=False)
          )
        )
      )
    )
    (pooler): BertPooler(
      (dense): Linear(in_features=128, out_features=128, bias=True)
      (activation): Tanh()
    )
  )
  (dropout): Dropout(p=0.1, inplace=False)
  (classifier): Linear(in_features=128, out_features=2, bias=True)
).
[W 2025-02-02 22:10:40,206] Trial 94 failed with parameters: {'num_layers': 2, 'num_heads': 1, 'hidden_size': 0, 'intermediate_size': 3, 'bert.encoder.layer.0.attention.self.query_type': 'identity', 'bert.encoder.layer.0.attention.self.key_type': 'linear', 'bert.encoder.layer.0.attention.self.value_type': 'identity', 'bert.encoder.layer.0.attention.output.dense_type': 'identity', 'bert.encoder.layer.1.attention.self.query_type': 'identity', 'bert.encoder.layer.1.attention.self.key_type': 'identity', 'bert.encoder.layer.1.attention.self.value_type': 'identity', 'bert.encoder.layer.1.attention.output.dense_type': 'linear', 'bert.pooler.dense_type': 'linear'} because of the following error: The value BertForSequenceClassification(
  (bert): BertModel(
    (embeddings): BertEmbeddings(
      (word_embeddings): Embedding(30522, 128, padding_idx=0)
      (position_embeddings): Embedding(512, 128)
      (token_type_embeddings): Embedding(2, 128)
      (LayerNorm): LayerNorm((128,), eps=1e-12, elementwise_affine=True)
      (dropout): Dropout(p=0.1, inplace=False)
    )
    (encoder): BertEncoder(
      (layer): ModuleList(
        (0): BertLayer(
          (attention): BertAttention(
            (self): BertSdpaSelfAttention(
              (query): Identity()
              (key): Linear(in_features=128, out_features=128, bias=True)
              (value): Identity()
              (dropout): Dropout(p=0.1, inplace=False)
            )
            (output): BertSelfOutput(
              (dense): Identity()
              (LayerNorm): LayerNorm((128,), eps=1e-12, elementwise_affine=True)
              (dropout): Dropout(p=0.1, inplace=False)
            )
          )
          (intermediate): BertIntermediate(
            (dense): Linear(in_features=128, out_features=1536, bias=True)
            (intermediate_act_fn): GELUActivation()
          )
          (output): BertOutput(
            (dense): Linear(in_features=1536, out_features=128, bias=True)
            (LayerNorm): LayerNorm((128,), eps=1e-12, elementwise_affine=True)
            (dropout): Dropout(p=0.1, inplace=False)
          )
        )
        (1): BertLayer(
          (attention): BertAttention(
            (self): BertSdpaSelfAttention(
              (query): Identity()
              (key): Identity()
              (value): Identity()
              (dropout): Dropout(p=0.1, inplace=False)
            )
            (output): BertSelfOutput(
              (dense): Linear(in_features=128, out_features=128, bias=True)
              (LayerNorm): LayerNorm((128,), eps=1e-12, elementwise_affine=True)
              (dropout): Dropout(p=0.1, inplace=False)
            )
          )
          (intermediate): BertIntermediate(
            (dense): Linear(in_features=128, out_features=1536, bias=True)
            (intermediate_act_fn): GELUActivation()
          )
          (output): BertOutput(
            (dense): Linear(in_features=1536, out_features=128, bias=True)
            (LayerNorm): LayerNorm((128,), eps=1e-12, elementwise_affine=True)
            (dropout): Dropout(p=0.1, inplace=False)
          )
        )
      )
    )
    (pooler): BertPooler(
      (dense): Linear(in_features=128, out_features=128, bias=True)
      (activation): Tanh()
    )
  )
  (dropout): Dropout(p=0.1, inplace=False)
  (classifier): Linear(in_features=128, out_features=2, bias=True)
) could not be cast to float.
[W 2025-02-02 22:10:40,206] Trial 94 failed with value BertForSequenceClassification(
  (bert): BertModel(
    (embeddings): BertEmbeddings(
      (word_embeddings): Embedding(30522, 128, padding_idx=0)
      (position_embeddings): Embedding(512, 128)
      (token_type_embeddings): Embedding(2, 128)
      (LayerNorm): LayerNorm((128,), eps=1e-12, elementwise_affine=True)
      (dropout): Dropout(p=0.1, inplace=False)
    )
    (encoder): BertEncoder(
      (layer): ModuleList(
        (0): BertLayer(
          (attention): BertAttention(
            (self): BertSdpaSelfAttention(
              (query): Identity()
              (key): Linear(in_features=128, out_features=128, bias=True)
              (value): Identity()
              (dropout): Dropout(p=0.1, inplace=False)
            )
            (output): BertSelfOutput(
              (dense): Identity()
              (LayerNorm): LayerNorm((128,), eps=1e-12, elementwise_affine=True)
              (dropout): Dropout(p=0.1, inplace=False)
            )
          )
          (intermediate): BertIntermediate(
            (dense): Linear(in_features=128, out_features=1536, bias=True)
            (intermediate_act_fn): GELUActivation()
          )
          (output): BertOutput(
            (dense): Linear(in_features=1536, out_features=128, bias=True)
            (LayerNorm): LayerNorm((128,), eps=1e-12, elementwise_affine=True)
            (dropout): Dropout(p=0.1, inplace=False)
          )
        )
        (1): BertLayer(
          (attention): BertAttention(
            (self): BertSdpaSelfAttention(
              (query): Identity()
              (key): Identity()
              (value): Identity()
              (dropout): Dropout(p=0.1, inplace=False)
            )
            (output): BertSelfOutput(
              (dense): Linear(in_features=128, out_features=128, bias=True)
              (LayerNorm): LayerNorm((128,), eps=1e-12, elementwise_affine=True)
              (dropout): Dropout(p=0.1, inplace=False)
            )
          )
          (intermediate): BertIntermediate(
            (dense): Linear(in_features=128, out_features=1536, bias=True)
            (intermediate_act_fn): GELUActivation()
          )
          (output): BertOutput(
            (dense): Linear(in_features=1536, out_features=128, bias=True)
            (LayerNorm): LayerNorm((128,), eps=1e-12, elementwise_affine=True)
            (dropout): Dropout(p=0.1, inplace=False)
          )
        )
      )
    )
    (pooler): BertPooler(
      (dense): Linear(in_features=128, out_features=128, bias=True)
      (activation): Tanh()
    )
  )
  (dropout): Dropout(p=0.1, inplace=False)
  (classifier): Linear(in_features=128, out_features=2, bias=True)
).
[W 2025-02-02 22:10:40,515] Trial 95 failed with parameters: {'num_layers': 2, 'num_heads': 3, 'hidden_size': 4, 'intermediate_size': 3, 'bert.encoder.layer.0.attention.self.query_type': 'linear', 'bert.encoder.layer.0.attention.self.key_type': 'linear', 'bert.encoder.layer.0.attention.self.value_type': 'identity', 'bert.encoder.layer.0.attention.output.dense_type': 'linear', 'bert.encoder.layer.1.attention.self.query_type': 'identity', 'bert.encoder.layer.1.attention.self.key_type': 'linear', 'bert.encoder.layer.1.attention.self.value_type': 'linear', 'bert.encoder.layer.1.attention.output.dense_type': 'linear', 'bert.pooler.dense_type': 'linear'} because of the following error: The value BertForSequenceClassification(
  (bert): BertModel(
    (embeddings): BertEmbeddings(
      (word_embeddings): Embedding(30522, 512, padding_idx=0)
      (position_embeddings): Embedding(512, 512)
      (token_type_embeddings): Embedding(2, 512)
      (LayerNorm): LayerNorm((512,), eps=1e-12, elementwise_affine=True)
      (dropout): Dropout(p=0.1, inplace=False)
    )
    (encoder): BertEncoder(
      (layer): ModuleList(
        (0): BertLayer(
          (attention): BertAttention(
            (self): BertSdpaSelfAttention(
              (query): Linear(in_features=512, out_features=512, bias=True)
              (key): Linear(in_features=512, out_features=512, bias=True)
              (value): Identity()
              (dropout): Dropout(p=0.1, inplace=False)
            )
            (output): BertSelfOutput(
              (dense): Linear(in_features=512, out_features=512, bias=True)
              (LayerNorm): LayerNorm((512,), eps=1e-12, elementwise_affine=True)
              (dropout): Dropout(p=0.1, inplace=False)
            )
          )
          (intermediate): BertIntermediate(
            (dense): Linear(in_features=512, out_features=1536, bias=True)
            (intermediate_act_fn): GELUActivation()
          )
          (output): BertOutput(
            (dense): Linear(in_features=1536, out_features=512, bias=True)
            (LayerNorm): LayerNorm((512,), eps=1e-12, elementwise_affine=True)
            (dropout): Dropout(p=0.1, inplace=False)
          )
        )
        (1): BertLayer(
          (attention): BertAttention(
            (self): BertSdpaSelfAttention(
              (query): Identity()
              (key): Linear(in_features=512, out_features=512, bias=True)
              (value): Linear(in_features=512, out_features=512, bias=True)
              (dropout): Dropout(p=0.1, inplace=False)
            )
            (output): BertSelfOutput(
              (dense): Linear(in_features=512, out_features=512, bias=True)
              (LayerNorm): LayerNorm((512,), eps=1e-12, elementwise_affine=True)
              (dropout): Dropout(p=0.1, inplace=False)
            )
          )
          (intermediate): BertIntermediate(
            (dense): Linear(in_features=512, out_features=1536, bias=True)
            (intermediate_act_fn): GELUActivation()
          )
          (output): BertOutput(
            (dense): Linear(in_features=1536, out_features=512, bias=True)
            (LayerNorm): LayerNorm((512,), eps=1e-12, elementwise_affine=True)
            (dropout): Dropout(p=0.1, inplace=False)
          )
        )
      )
    )
    (pooler): BertPooler(
      (dense): Linear(in_features=512, out_features=512, bias=True)
      (activation): Tanh()
    )
  )
  (dropout): Dropout(p=0.1, inplace=False)
  (classifier): Linear(in_features=512, out_features=2, bias=True)
) could not be cast to float.
[W 2025-02-02 22:10:40,515] Trial 95 failed with value BertForSequenceClassification(
  (bert): BertModel(
    (embeddings): BertEmbeddings(
      (word_embeddings): Embedding(30522, 512, padding_idx=0)
      (position_embeddings): Embedding(512, 512)
      (token_type_embeddings): Embedding(2, 512)
      (LayerNorm): LayerNorm((512,), eps=1e-12, elementwise_affine=True)
      (dropout): Dropout(p=0.1, inplace=False)
    )
    (encoder): BertEncoder(
      (layer): ModuleList(
        (0): BertLayer(
          (attention): BertAttention(
            (self): BertSdpaSelfAttention(
              (query): Linear(in_features=512, out_features=512, bias=True)
              (key): Linear(in_features=512, out_features=512, bias=True)
              (value): Identity()
              (dropout): Dropout(p=0.1, inplace=False)
            )
            (output): BertSelfOutput(
              (dense): Linear(in_features=512, out_features=512, bias=True)
              (LayerNorm): LayerNorm((512,), eps=1e-12, elementwise_affine=True)
              (dropout): Dropout(p=0.1, inplace=False)
            )
          )
          (intermediate): BertIntermediate(
            (dense): Linear(in_features=512, out_features=1536, bias=True)
            (intermediate_act_fn): GELUActivation()
          )
          (output): BertOutput(
            (dense): Linear(in_features=1536, out_features=512, bias=True)
            (LayerNorm): LayerNorm((512,), eps=1e-12, elementwise_affine=True)
            (dropout): Dropout(p=0.1, inplace=False)
          )
        )
        (1): BertLayer(
          (attention): BertAttention(
            (self): BertSdpaSelfAttention(
              (query): Identity()
              (key): Linear(in_features=512, out_features=512, bias=True)
              (value): Linear(in_features=512, out_features=512, bias=True)
              (dropout): Dropout(p=0.1, inplace=False)
            )
            (output): BertSelfOutput(
              (dense): Linear(in_features=512, out_features=512, bias=True)
              (LayerNorm): LayerNorm((512,), eps=1e-12, elementwise_affine=True)
              (dropout): Dropout(p=0.1, inplace=False)
            )
          )
          (intermediate): BertIntermediate(
            (dense): Linear(in_features=512, out_features=1536, bias=True)
            (intermediate_act_fn): GELUActivation()
          )
          (output): BertOutput(
            (dense): Linear(in_features=1536, out_features=512, bias=True)
            (LayerNorm): LayerNorm((512,), eps=1e-12, elementwise_affine=True)
            (dropout): Dropout(p=0.1, inplace=False)
          )
        )
      )
    )
    (pooler): BertPooler(
      (dense): Linear(in_features=512, out_features=512, bias=True)
      (activation): Tanh()
    )
  )
  (dropout): Dropout(p=0.1, inplace=False)
  (classifier): Linear(in_features=512, out_features=2, bias=True)
).
[W 2025-02-02 22:10:40,752] Trial 96 failed with parameters: {'num_layers': 0, 'num_heads': 0, 'hidden_size': 3, 'intermediate_size': 0, 'bert.encoder.layer.0.attention.self.query_type': 'linear', 'bert.encoder.layer.0.attention.self.key_type': 'linear', 'bert.encoder.layer.0.attention.self.value_type': 'linear', 'bert.encoder.layer.0.attention.output.dense_type': 'linear', 'bert.encoder.layer.1.attention.self.query_type': 'linear', 'bert.encoder.layer.1.attention.self.key_type': 'identity', 'bert.encoder.layer.1.attention.self.value_type': 'linear', 'bert.encoder.layer.1.attention.output.dense_type': 'identity', 'bert.pooler.dense_type': 'linear'} because of the following error: The value BertForSequenceClassification(
  (bert): BertModel(
    (embeddings): BertEmbeddings(
      (word_embeddings): Embedding(30522, 384, padding_idx=0)
      (position_embeddings): Embedding(512, 384)
      (token_type_embeddings): Embedding(2, 384)
      (LayerNorm): LayerNorm((384,), eps=1e-12, elementwise_affine=True)
      (dropout): Dropout(p=0.1, inplace=False)
    )
    (encoder): BertEncoder(
      (layer): ModuleList(
        (0): BertLayer(
          (attention): BertAttention(
            (self): BertSdpaSelfAttention(
              (query): Linear(in_features=384, out_features=384, bias=True)
              (key): Linear(in_features=384, out_features=384, bias=True)
              (value): Linear(in_features=384, out_features=384, bias=True)
              (dropout): Dropout(p=0.1, inplace=False)
            )
            (output): BertSelfOutput(
              (dense): Linear(in_features=384, out_features=384, bias=True)
              (LayerNorm): LayerNorm((384,), eps=1e-12, elementwise_affine=True)
              (dropout): Dropout(p=0.1, inplace=False)
            )
          )
          (intermediate): BertIntermediate(
            (dense): Linear(in_features=384, out_features=512, bias=True)
            (intermediate_act_fn): GELUActivation()
          )
          (output): BertOutput(
            (dense): Linear(in_features=512, out_features=384, bias=True)
            (LayerNorm): LayerNorm((384,), eps=1e-12, elementwise_affine=True)
            (dropout): Dropout(p=0.1, inplace=False)
          )
        )
        (1): BertLayer(
          (attention): BertAttention(
            (self): BertSdpaSelfAttention(
              (query): Linear(in_features=384, out_features=384, bias=True)
              (key): Identity()
              (value): Linear(in_features=384, out_features=384, bias=True)
              (dropout): Dropout(p=0.1, inplace=False)
            )
            (output): BertSelfOutput(
              (dense): Identity()
              (LayerNorm): LayerNorm((384,), eps=1e-12, elementwise_affine=True)
              (dropout): Dropout(p=0.1, inplace=False)
            )
          )
          (intermediate): BertIntermediate(
            (dense): Linear(in_features=384, out_features=512, bias=True)
            (intermediate_act_fn): GELUActivation()
          )
          (output): BertOutput(
            (dense): Linear(in_features=512, out_features=384, bias=True)
            (LayerNorm): LayerNorm((384,), eps=1e-12, elementwise_affine=True)
            (dropout): Dropout(p=0.1, inplace=False)
          )
        )
      )
    )
    (pooler): BertPooler(
      (dense): Linear(in_features=384, out_features=384, bias=True)
      (activation): Tanh()
    )
  )
  (dropout): Dropout(p=0.1, inplace=False)
  (classifier): Linear(in_features=384, out_features=2, bias=True)
) could not be cast to float.
[W 2025-02-02 22:10:40,753] Trial 96 failed with value BertForSequenceClassification(
  (bert): BertModel(
    (embeddings): BertEmbeddings(
      (word_embeddings): Embedding(30522, 384, padding_idx=0)
      (position_embeddings): Embedding(512, 384)
      (token_type_embeddings): Embedding(2, 384)
      (LayerNorm): LayerNorm((384,), eps=1e-12, elementwise_affine=True)
      (dropout): Dropout(p=0.1, inplace=False)
    )
    (encoder): BertEncoder(
      (layer): ModuleList(
        (0): BertLayer(
          (attention): BertAttention(
            (self): BertSdpaSelfAttention(
              (query): Linear(in_features=384, out_features=384, bias=True)
              (key): Linear(in_features=384, out_features=384, bias=True)
              (value): Linear(in_features=384, out_features=384, bias=True)
              (dropout): Dropout(p=0.1, inplace=False)
            )
            (output): BertSelfOutput(
              (dense): Linear(in_features=384, out_features=384, bias=True)
              (LayerNorm): LayerNorm((384,), eps=1e-12, elementwise_affine=True)
              (dropout): Dropout(p=0.1, inplace=False)
            )
          )
          (intermediate): BertIntermediate(
            (dense): Linear(in_features=384, out_features=512, bias=True)
            (intermediate_act_fn): GELUActivation()
          )
          (output): BertOutput(
            (dense): Linear(in_features=512, out_features=384, bias=True)
            (LayerNorm): LayerNorm((384,), eps=1e-12, elementwise_affine=True)
            (dropout): Dropout(p=0.1, inplace=False)
          )
        )
        (1): BertLayer(
          (attention): BertAttention(
            (self): BertSdpaSelfAttention(
              (query): Linear(in_features=384, out_features=384, bias=True)
              (key): Identity()
              (value): Linear(in_features=384, out_features=384, bias=True)
              (dropout): Dropout(p=0.1, inplace=False)
            )
            (output): BertSelfOutput(
              (dense): Identity()
              (LayerNorm): LayerNorm((384,), eps=1e-12, elementwise_affine=True)
              (dropout): Dropout(p=0.1, inplace=False)
            )
          )
          (intermediate): BertIntermediate(
            (dense): Linear(in_features=384, out_features=512, bias=True)
            (intermediate_act_fn): GELUActivation()
          )
          (output): BertOutput(
            (dense): Linear(in_features=512, out_features=384, bias=True)
            (LayerNorm): LayerNorm((384,), eps=1e-12, elementwise_affine=True)
            (dropout): Dropout(p=0.1, inplace=False)
          )
        )
      )
    )
    (pooler): BertPooler(
      (dense): Linear(in_features=384, out_features=384, bias=True)
      (activation): Tanh()
    )
  )
  (dropout): Dropout(p=0.1, inplace=False)
  (classifier): Linear(in_features=384, out_features=2, bias=True)
).
[W 2025-02-02 22:10:40,906] Trial 97 failed with parameters: {'num_layers': 0, 'num_heads': 0, 'hidden_size': 0, 'intermediate_size': 2, 'bert.encoder.layer.0.attention.self.query_type': 'linear', 'bert.encoder.layer.0.attention.self.key_type': 'linear', 'bert.encoder.layer.0.attention.self.value_type': 'linear', 'bert.encoder.layer.0.attention.output.dense_type': 'linear', 'bert.encoder.layer.1.attention.self.query_type': 'linear', 'bert.encoder.layer.1.attention.self.key_type': 'linear', 'bert.encoder.layer.1.attention.self.value_type': 'identity', 'bert.encoder.layer.1.attention.output.dense_type': 'linear', 'bert.pooler.dense_type': 'identity'} because of the following error: The value BertForSequenceClassification(
  (bert): BertModel(
    (embeddings): BertEmbeddings(
      (word_embeddings): Embedding(30522, 128, padding_idx=0)
      (position_embeddings): Embedding(512, 128)
      (token_type_embeddings): Embedding(2, 128)
      (LayerNorm): LayerNorm((128,), eps=1e-12, elementwise_affine=True)
      (dropout): Dropout(p=0.1, inplace=False)
    )
    (encoder): BertEncoder(
      (layer): ModuleList(
        (0): BertLayer(
          (attention): BertAttention(
            (self): BertSdpaSelfAttention(
              (query): Linear(in_features=128, out_features=128, bias=True)
              (key): Linear(in_features=128, out_features=128, bias=True)
              (value): Linear(in_features=128, out_features=128, bias=True)
              (dropout): Dropout(p=0.1, inplace=False)
            )
            (output): BertSelfOutput(
              (dense): Linear(in_features=128, out_features=128, bias=True)
              (LayerNorm): LayerNorm((128,), eps=1e-12, elementwise_affine=True)
              (dropout): Dropout(p=0.1, inplace=False)
            )
          )
          (intermediate): BertIntermediate(
            (dense): Linear(in_features=128, out_features=1024, bias=True)
            (intermediate_act_fn): GELUActivation()
          )
          (output): BertOutput(
            (dense): Linear(in_features=1024, out_features=128, bias=True)
            (LayerNorm): LayerNorm((128,), eps=1e-12, elementwise_affine=True)
            (dropout): Dropout(p=0.1, inplace=False)
          )
        )
        (1): BertLayer(
          (attention): BertAttention(
            (self): BertSdpaSelfAttention(
              (query): Linear(in_features=128, out_features=128, bias=True)
              (key): Linear(in_features=128, out_features=128, bias=True)
              (value): Identity()
              (dropout): Dropout(p=0.1, inplace=False)
            )
            (output): BertSelfOutput(
              (dense): Linear(in_features=128, out_features=128, bias=True)
              (LayerNorm): LayerNorm((128,), eps=1e-12, elementwise_affine=True)
              (dropout): Dropout(p=0.1, inplace=False)
            )
          )
          (intermediate): BertIntermediate(
            (dense): Linear(in_features=128, out_features=1024, bias=True)
            (intermediate_act_fn): GELUActivation()
          )
          (output): BertOutput(
            (dense): Linear(in_features=1024, out_features=128, bias=True)
            (LayerNorm): LayerNorm((128,), eps=1e-12, elementwise_affine=True)
            (dropout): Dropout(p=0.1, inplace=False)
          )
        )
      )
    )
    (pooler): BertPooler(
      (dense): Identity()
      (activation): Tanh()
    )
  )
  (dropout): Dropout(p=0.1, inplace=False)
  (classifier): Linear(in_features=128, out_features=2, bias=True)
) could not be cast to float.
[W 2025-02-02 22:10:40,906] Trial 97 failed with value BertForSequenceClassification(
  (bert): BertModel(
    (embeddings): BertEmbeddings(
      (word_embeddings): Embedding(30522, 128, padding_idx=0)
      (position_embeddings): Embedding(512, 128)
      (token_type_embeddings): Embedding(2, 128)
      (LayerNorm): LayerNorm((128,), eps=1e-12, elementwise_affine=True)
      (dropout): Dropout(p=0.1, inplace=False)
    )
    (encoder): BertEncoder(
      (layer): ModuleList(
        (0): BertLayer(
          (attention): BertAttention(
            (self): BertSdpaSelfAttention(
              (query): Linear(in_features=128, out_features=128, bias=True)
              (key): Linear(in_features=128, out_features=128, bias=True)
              (value): Linear(in_features=128, out_features=128, bias=True)
              (dropout): Dropout(p=0.1, inplace=False)
            )
            (output): BertSelfOutput(
              (dense): Linear(in_features=128, out_features=128, bias=True)
              (LayerNorm): LayerNorm((128,), eps=1e-12, elementwise_affine=True)
              (dropout): Dropout(p=0.1, inplace=False)
            )
          )
          (intermediate): BertIntermediate(
            (dense): Linear(in_features=128, out_features=1024, bias=True)
            (intermediate_act_fn): GELUActivation()
          )
          (output): BertOutput(
            (dense): Linear(in_features=1024, out_features=128, bias=True)
            (LayerNorm): LayerNorm((128,), eps=1e-12, elementwise_affine=True)
            (dropout): Dropout(p=0.1, inplace=False)
          )
        )
        (1): BertLayer(
          (attention): BertAttention(
            (self): BertSdpaSelfAttention(
              (query): Linear(in_features=128, out_features=128, bias=True)
              (key): Linear(in_features=128, out_features=128, bias=True)
              (value): Identity()
              (dropout): Dropout(p=0.1, inplace=False)
            )
            (output): BertSelfOutput(
              (dense): Linear(in_features=128, out_features=128, bias=True)
              (LayerNorm): LayerNorm((128,), eps=1e-12, elementwise_affine=True)
              (dropout): Dropout(p=0.1, inplace=False)
            )
          )
          (intermediate): BertIntermediate(
            (dense): Linear(in_features=128, out_features=1024, bias=True)
            (intermediate_act_fn): GELUActivation()
          )
          (output): BertOutput(
            (dense): Linear(in_features=1024, out_features=128, bias=True)
            (LayerNorm): LayerNorm((128,), eps=1e-12, elementwise_affine=True)
            (dropout): Dropout(p=0.1, inplace=False)
          )
        )
      )
    )
    (pooler): BertPooler(
      (dense): Identity()
      (activation): Tanh()
    )
  )
  (dropout): Dropout(p=0.1, inplace=False)
  (classifier): Linear(in_features=128, out_features=2, bias=True)
).
[W 2025-02-02 22:10:41,197] Trial 98 failed with parameters: {'num_layers': 2, 'num_heads': 1, 'hidden_size': 4, 'intermediate_size': 0, 'bert.encoder.layer.0.attention.self.query_type': 'linear', 'bert.encoder.layer.0.attention.self.key_type': 'linear', 'bert.encoder.layer.0.attention.self.value_type': 'linear', 'bert.encoder.layer.0.attention.output
…
, 'bert.encoder.layer.0.output.dense_type': 'linear', 'bert.encoder.layer.1.attention.self.query_type': 'identity', 'bert.encoder.layer.1.attention.self.key_type': 'identity', 'bert.encoder.layer.1.attention.self.value_type': 'identity', 'bert.encoder.layer.1.attention.output.dense_type': 'linear', 'bert.encoder.layer.1.intermediate.dense_type': 'identity', 'bert.encoder.layer.1.output.dense_type': 'linear', 'bert.pooler.dense_type': 'identity'} because of the following error: The value BertForSequenceClassification(
  (bert): BertModel(
    (embeddings): BertEmbeddings(
      (word_embeddings): Embedding(30522, 512, padding_idx=0)
      (position_embeddings): Embedding(512, 512)
      (token_type_embeddings): Embedding(2, 512)
      (LayerNorm): LayerNorm((512,), eps=1e-12, elementwise_affine=True)
      (dropout): Dropout(p=0.1, inplace=False)
    )
    (encoder): BertEncoder(
      (layer): ModuleList(
        (0): BertLayer(
          (attention): BertAttention(
            (self): BertSdpaSelfAttention(
              (query): Linear(in_features=512, out_features=512, bias=True)
              (key): Linear(in_features=512, out_features=512, bias=True)
              (value): Linear(in_features=512, out_features=512, bias=True)
              (dropout): Dropout(p=0.1, inplace=False)
            )
            (output): BertSelfOutput(
              (dense): Linear(in_features=512, out_features=512, bias=True)
              (LayerNorm): LayerNorm((512,), eps=1e-12, elementwise_affine=True)
              (dropout): Dropout(p=0.1, inplace=False)
            )
          )
          (intermediate): BertIntermediate(
            (dense): Identity()
            (intermediate_act_fn): GELUActivation()
          )
          (output): BertOutput(
            (dense): Linear(in_features=512, out_features=512, bias=True)
            (LayerNorm): LayerNorm((512,), eps=1e-12, elementwise_affine=True)
            (dropout): Dropout(p=0.1, inplace=False)
          )
        )
        (1): BertLayer(
          (attention): BertAttention(
            (self): BertSdpaSelfAttention(
              (query): Identity()
              (key): Identity()
              (value): Identity()
              (dropout): Dropout(p=0.1, inplace=False)
            )
            (output): BertSelfOutput(
              (dense): Linear(in_features=512, out_features=512, bias=True)
              (LayerNorm): LayerNorm((512,), eps=1e-12, elementwise_affine=True)
              (dropout): Dropout(p=0.1, inplace=False)
            )
          )
          (intermediate): BertIntermediate(
            (dense): Identity()
            (intermediate_act_fn): GELUActivation()
          )
          (output): BertOutput(
            (dense): Linear(in_features=512, out_features=512, bias=True)
            (LayerNorm): LayerNorm((512,), eps=1e-12, elementwise_affine=True)
            (dropout): Dropout(p=0.1, inplace=False)
          )
        )
      )
    )
    (pooler): BertPooler(
      (dense): Identity()
      (activation): Tanh()
    )
  )
  (dropout): Dropout(p=0.1, inplace=False)
  (classifier): Linear(in_features=512, out_features=2, bias=True)
) could not be cast to float.
[W 2025-02-02 22:10:41,198] Trial 98 failed with value BertForSequenceClassification(
  (bert): BertModel(
    (embeddings): BertEmbeddings(
      (word_embeddings): Embedding(30522, 512, padding_idx=0)
      (position_embeddings): Embedding(512, 512)
      (token_type_embeddings): Embedding(2, 512)
      (LayerNorm): LayerNorm((512,), eps=1e-12, elementwise_affine=True)
      (dropout): Dropout(p=0.1, inplace=False)
    )
    (encoder): BertEncoder(
      (layer): ModuleList(
        (0): BertLayer(
          (attention): BertAttention(
            (self): BertSdpaSelfAttention(
              (query): Linear(in_features=512, out_features=512, bias=True)
              (key): Linear(in_features=512, out_features=512, bias=True)
              (value): Linear(in_features=512, out_features=512, bias=True)
              (dropout): Dropout(p=0.1, inplace=False)
            )
            (output): BertSelfOutput(
              (dense): Linear(in_features=512, out_features=512, bias=True)
              (LayerNorm): LayerNorm((512,), eps=1e-12, elementwise_affine=True)
              (dropout): Dropout(p=0.1, inplace=False)
            )
          )
          (intermediate): BertIntermediate(
            (dense): Identity()
            (intermediate_act_fn): GELUActivation()
          )
          (output): BertOutput(
            (dense): Linear(in_features=512, out_features=512, bias=True)
            (LayerNorm): LayerNorm((512,), eps=1e-12, elementwise_affine=True)
            (dropout): Dropout(p=0.1, inplace=False)
          )
        )
        (1): BertLayer(
          (attention): BertAttention(
            (self): BertSdpaSelfAttention(
              (query): Identity()
              (key): Identity()
              (value): Identity()
              (dropout): Dropout(p=0.1, inplace=False)
            )
            (output): BertSelfOutput(
              (dense): Linear(in_features=512, out_features=512, bias=True)
              (LayerNorm): LayerNorm((512,), eps=1e-12, elementwise_affine=True)
              (dropout): Dropout(p=0.1, inplace=False)
            )
          )
          (intermediate): BertIntermediate(
            (dense): Identity()
            (intermediate_act_fn): GELUActivation()
          )
          (output): BertOutput(
            (dense): Linear(in_features=512, out_features=512, bias=True)
            (LayerNorm): LayerNorm((512,), eps=1e-12, elementwise_affine=True)
            (dropout): Dropout(p=0.1, inplace=False)
          )
        )
      )
    )
    (pooler): BertPooler(
      (dense): Identity()
      (activation): Tanh()
    )
  )
  (dropout): Dropout(p=0.1, inplace=False)
  (classifier): Linear(in_features=512, out_features=2, bias=True)
).
[W 2025-02-02 22:10:41,368] Trial 99 failed with parameters: {'num_layers': 2, 'num_heads': 0, 'hidden_size': 1, 'intermediate_size': 0, 'bert.encoder.layer.0.attention.self.query_type': 'identity', 'bert.encoder.layer.0.attention.self.key_type': 'linear', 'bert.encoder.layer.0.attention.self.value_type': 'identity', 'bert.encoder.layer.0.attention.output.dense_type': 'identity', 'bert.encoder.layer.1.attention.self.query_type': 'identity', 'bert.encoder.layer.1.attention.self.key_type': 'identity', 'bert.encoder.layer.1.attention.self.value_type': 'linear', 'bert.encoder.layer.1.attention.output.dense_type': 'identity', 'bert.pooler.dense_type': 'identity'} because of the following error: The value BertForSequenceClassification(
  (bert): BertModel(
    (embeddings): BertEmbeddings(
      (word_embeddings): Embedding(30522, 192, padding_idx=0)
      (position_embeddings): Embedding(512, 192)
      (token_type_embeddings): Embedding(2, 192)
      (LayerNorm): LayerNorm((192,), eps=1e-12, elementwise_affine=True)
      (dropout): Dropout(p=0.1, inplace=False)
    )
    (encoder): BertEncoder(
      (layer): ModuleList(
        (0): BertLayer(
          (attention): BertAttention(
            (self): BertSdpaSelfAttention(
              (query): Identity()
              (key): Linear(in_features=192, out_features=192, bias=True)
              (value): Identity()
              (dropout): Dropout(p=0.1, inplace=False)
            )
            (output): BertSelfOutput(
              (dense): Identity()
              (LayerNorm): LayerNorm((192,), eps=1e-12, elementwise_affine=True)
              (dropout): Dropout(p=0.1, inplace=False)
            )
          )
          (intermediate): BertIntermediate(
            (dense): Linear(in_features=192, out_features=512, bias=True)
            (intermediate_act_fn): GELUActivation()
          )
          (output): BertOutput(
            (dense): Linear(in_features=512, out_features=192, bias=True)
            (LayerNorm): LayerNorm((192,), eps=1e-12, elementwise_affine=True)
            (dropout): Dropout(p=0.1, inplace=False)
          )
        )
        (1): BertLayer(
          (attention): BertAttention(
            (self): BertSdpaSelfAttention(
              (query): Identity()
              (key): Identity()
              (value): Linear(in_features=192, out_features=192, bias=True)
              (dropout): Dropout(p=0.1, inplace=False)
            )
            (output): BertSelfOutput(
              (dense): Identity()
              (LayerNorm): LayerNorm((192,), eps=1e-12, elementwise_affine=True)
              (dropout): Dropout(p=0.1, inplace=False)
            )
          )
          (intermediate): BertIntermediate(
            (dense): Linear(in_features=192, out_features=512, bias=True)
            (intermediate_act_fn): GELUActivation()
          )
          (output): BertOutput(
            (dense): Linear(in_features=512, out_features=192, bias=True)
            (LayerNorm): LayerNorm((192,), eps=1e-12, elementwise_affine=True)
            (dropout): Dropout(p=0.1, inplace=False)
          )
        )
      )
    )
    (pooler): BertPooler(
      (dense): Identity()
      (activation): Tanh()
    )
  )
  (dropout): Dropout(p=0.1, inplace=False)
  (classifier): Linear(in_features=192, out_features=2, bias=True)
) could not be cast to float.
[W 2025-02-02 22:10:41,368] Trial 99 failed with value BertForSequenceClassification(
  (bert): BertModel(
    (embeddings): BertEmbeddings(
      (word_embeddings): Embedding(30522, 192, padding_idx=0)
      (position_embeddings): Embedding(512, 192)
      (token_type_embeddings): Embedding(2, 192)
      (LayerNorm): LayerNorm((192,), eps=1e-12, elementwise_affine=True)
      (dropout): Dropout(p=0.1, inplace=False)
    )
    (encoder): BertEncoder(
      (layer): ModuleList(
        (0): BertLayer(
          (attention): BertAttention(
            (self): BertSdpaSelfAttention(
              (query): Identity()
              (key): Linear(in_features=192, out_features=192, bias=True)
              (value): Identity()
              (dropout): Dropout(p=0.1, inplace=False)
            )
            (output): BertSelfOutput(
              (dense): Identity()
              (LayerNorm): LayerNorm((192,), eps=1e-12, elementwise_affine=True)
              (dropout): Dropout(p=0.1, inplace=False)
            )
          )
          (intermediate): BertIntermediate(
            (dense): Linear(in_features=192, out_features=512, bias=True)
            (intermediate_act_fn): GELUActivation()
          )
          (output): BertOutput(
            (dense): Linear(in_features=512, out_features=192, bias=True)
            (LayerNorm): LayerNorm((192,), eps=1e-12, elementwise_affine=True)
            (dropout): Dropout(p=0.1, inplace=False)
          )
        )
        (1): BertLayer(
          (attention): BertAttention(
            (self): BertSdpaSelfAttention(
              (query): Identity()
              (key): Identity()
              (value): Linear(in_features=192, out_features=192, bias=True)
              (dropout): Dropout(p=0.1, inplace=False)
            )
            (output): BertSelfOutput(
              (dense): Identity()
              (LayerNorm): LayerNorm((192,), eps=1e-12, elementwise_affine=True)
              (dropout): Dropout(p=0.1, inplace=False)
            )
          )
          (intermediate): BertIntermediate(
            (dense): Linear(in_features=192, out_features=512, bias=True)
            (intermediate_act_fn): GELUActivation()
          )
          (output): BertOutput(
            (dense): Linear(in_features=512, out_features=192, bias=True)
            (LayerNorm): LayerNorm((192,), eps=1e-12, elementwise_affine=True)
            (dropout): Dropout(p=0.1, inplace=False)
          )
        )
      )
    )
    (pooler): BertPooler(
      (dense): Identity()
      (activation): Tanh()
    )
  )
  (dropout): Dropout(p=0.1, inplace=False)
  (classifier): Linear(in_features=192, out_features=2, bias=True)
).
[I 2025-02-02 22:10:42,086] A new study created in memory with name: bert-tiny-nas-study
/rds/general/user/oa321/home/mase/src/chop/tools/huggingface.py:157: FutureWarning: `tokenizer` is deprecated and will be removed in version 5.0.0 for `Trainer.__init__`. Use `processing_class` instead.
  trainer = Trainer(
WARNING:accelerate.utils.other:Detected kernel version 4.18.0, which is below the recommended minimum of 5.5.0; this can cause the process to hang. It is recommended to upgrade the kernel to the minimum version or higher.
…
